lstm_model.pth (torch, 50598 bytes, 6 tensors)

lstm.weight_ih_l0 f4 [200, 6]
000000 a7 24 1b 3d 35 c7 92 be e7 a8 47 3c 2a a6 53 be
       0.03787675 -0.28667608 0.012186266 -0.20668855
000010 e2 96 b8 be a3 bd a8 3e 07 d9 4c be 56 b0 cc be
       -0.36052614 0.3295718 -0.20004664 -0.39978284
000020 e8 c4 bf 3e 73 9e d6 3e c2 86 cc 3c dc dd ba 3e
       0.37454915 0.41917762 0.024966601 0.3649739
000030 c2 d8 1e bf fa 46 b8 bd 62 14 85 bd 49 ac 70 be
       -0.62049496 -0.08997913 -0.06498028 -0.23503222
000040 2d f6 90 bd 2f 04 02 bf 48 89 84 bf c6 3f a3 bf
       -0.07078204 -0.50787634 -1.0354395 -1.2753837
000050 68 34 5f be 6b e5 02 bf 1d 00 8f 3e 87 84 ca 3e
       -0.21797335 -0.51131314 0.27929774 0.39554235
000060 a8 07 80 3e 93 ae b3 3e 75 34 03 bf b0 3f 6e 3e
       0.2500584 0.35094127 -0.5125192 0.23266482
000070 b0 f2 8b be 7f 3d dd 3c 5f 23 44 be c8 37 08 be
       -0.27333593 0.027006863 -0.19154118 -0.13302529
000080 2d 24 7d be c7 0e a0 3e 76 3b 7f bd 94 e7 5b be
       -0.24720831 0.31261274 -0.062312566 -0.21475059
000090 7a d2 13 bf a7 af 89 bd f5 c1 2b be e0 4d cf bd
       -0.57743037 -0.06722956 -0.16773207 -0.10122275
0000a0 9b e8 30 3e 1d c8 18 3e 1d ce f9 bf 8d ec 47 3f
       0.17276232 0.14920087 -1.9516026 0.7809532
0000b0 d2 e9 2f 3f 76 dc fb 3e d1 41 51 3f 15 21 2e bf
       0.68716156 0.49191636 0.8174105 -0.6801923
0000c0 93 2e 9e be 1d 3d 4d be d3 71 56 3e f4 09 97 be
       -0.30894908 -0.20042844 0.20941858 -0.2949978
0000d0 22 de 14 be c8 b5 45 3e fa 8d b6 bc c4 de 20 bf
       -0.14537862 0.19307625 -0.022284497 -0.62839913
0000e0 70 b7 63 3f 52 6d 38 be 62 85 91 be 0e 8c a3 3f
       0.8895178 -0.18010452 -0.28422076 1.2777116
0000f0 85 5a 9a be 7a 26 62 3d b7 9a 38 be b5 79 28 bf
       -0.30147186 0.055212475 -0.18027769 -0.6581071
000100 cf 54 75 3d 9c 7d b9 3e c8 dd 99 3e 0c 2e f2 3e
       0.059895333 0.36228645 0.30052018 0.47300756
000110 8a cc 3b be b8 df 02 be 12 aa c0 be c7 fc 4d bf
       -0.18339744 -0.12780654 -0.37629753 -0.8046383
000120 43 35 18 3d b2 0a 39 be ae db 1f bd 68 ad 79 3d
       0.03716017 -0.18070486 -0.039027862 0.06095639
000130 74 62 c1 be 9d 91 82 be 53 53 19 be aa f2 ca be
       -0.37770426 -0.2550172 -0.14973192 -0.39638263
000140 bc 68 40 be b5 64 26 3d 4f e6 46 be 5a fa 35 be
       -0.18789953 0.040623385 -0.19423793 -0.17771283
000150 e9 c0 9c be 6b 79 f4 be 29 0f e7 be fa 30 40 be
       -0.3061593 -0.47748885 -0.45128754 -0.18768683
000160 2b 35 d7 bd 1c 62 f4 be 8d a2 e3 be 6d b5 ff 3d
       -0.10508188 -0.47731102 -0.44459954 0.12485776
000170 8a 53 1e be 41 eb c4 be cf e1 39 3d 00 bd fb 3c
       -0.15461555 -0.38460734 0.045381363 0.03072977
000180 a1 e0 1c 3e f8 62 83 3d eb bf b8 bd 38 c6 60 3d
       0.15320064 0.06415361 -0.090209804 0.054876536
000190 14 e5 66 bc 12 bd 82 3e 30 d5 01 3f 8d f0 10 3f
       -0.014092702 0.25534874 0.50715923 0.5661705
0001a0 e3 76 c0 3f 6b 27 d6 3e 56 97 72 3f ae b4 da 3e
       1.5036281 0.4182695 0.9476217 0.42715973
0001b0 97 e6 f5 be e1 0b c5 bd 0b 76 47 3e e6 05 f5 3e
       -0.4802749 -0.09621406 0.19478624 0.47856063
0001c0 47 4c 42 3f cf 8a 6e 3e dc 92 62 bf 5c f7 c5 be
       0.7589764 0.23295139 -0.8850534 -0.38665283
0001d0 cf aa 70 bd 28 19 16 bf df d2 9d bd ef 3f 48 be
       -0.058756646 -0.58632135 -0.07706236 -0.19555639
0001e0 bf 3e 08 3f 7c 5c 9e 3e 3c b2 ba 3f 93 71 10 3f
       0.5322074 0.30929935 1.4585643 0.564233
0001f0 1b 8d d1 3f 60 07 8a 3f 70 30 3e be 85 90 b3 be
       1.6371187 1.0783501 -0.18573165 -0.35071197
000200 72 8c 5b be 4d 53 a6 bd bf b4 00 be 0f 9d 39 3c
       -0.21440294 -0.08121357 -0.12568949 0.01132895
000210 76 6b 49 3e 64 0d 00 3f 80 c9 aa be 57 cd 4c 3e
       0.196699 0.5002043 -0.33356857 0.20000206
000220 c2 ba b0 be 78 70 27 bf f9 7a 05 3e 21 a2 03 be
       -0.34517485 -0.6540599 0.13035192 -0.12854816
000230 ac c7 5f be 32 6d 09 be 14 ab a5 be e7 f5 fc 3c
       -0.21853513 -0.13420561 -0.32357085 0.030878974
000240 c7 97 2a bd b7 41 0d 3e b2 c3 12 bf de e9 81 3e
       -0.041648652 0.137946 -0.5732986 0.2537374
000250 b2 0e de 3d 47 dc 49 3e 3e 8e 47 bf 7c 26 b7 be
       0.10842647 0.19712935 -0.7795142 -0.3577155
000260 bb 69 91 be 9c e6 45 be 56 0c dd be 52 01 95 be
       -0.28400978 -0.19326252 -0.43173474 -0.2910257
000270 1e 39 48 be 5d c6 22 bf 09 5e 2f 3e a8 9a ae 3d
       -0.19553038 -0.6358393 0.17125715 0.08525592
000280 6c d6 d0 3e 5d f9 00 3f 75 00 9b be ee a1 b6 3d
       0.4078859 0.503805 -0.30273786 0.089176044
000290 b7 80 7b bd 38 ec 88 be 6b 57 13 be d2 62 37 3d
       -0.06140205 -0.2674272 -0.14388816 0.044771977
0002a0 81 8c 6d 3f fc 40 67 bf eb 3c 88 bf cb 18 0f bf
       0.92792517 -0.90333533 -1.0643591 -0.55897206
0002b0 79 a7 9f bf 2f 80 9c 3c bb 3b a1 be b1 fb 00 be
       -1.2472984 0.019104091 -0.31490883 -0.12596013
0002c0 8b fa 45 be 51 7c fe bc bf 5d 59 be 90 e1 0c bf
       -0.19333856 -0.031065138 -0.21227168 -0.5503168
0002d0 8a cd 72 3e 24 4f 6e 3e bf f1 b3 bd a8 a7 ae 3e
       0.2371122 0.23272377 -0.08786344 0.34112287
0002e0 7c 15 9d 3e 28 c8 41 be c6 70 0d 3e b7 87 bb 3e
       0.30680454 -0.1892401 0.13812551 0.3662698
0002f0 e6 67 71 3e dd 20 06 3f e4 cd 5e 3e af 2e 2b 3e
       0.2357479 0.52393895 0.21758229 0.16717027
000300 9d 0b 0c be 90 19 8c bd ee 13 7a 3d c7 d9 87 3e
       -0.13676305 -0.06840813 0.061054163 0.26533338
000310 14 54 6e 3e 35 50 96 bd 78 5a 10 bf 7e 8a d8 3d
       0.23274261 -0.07339517 -0.56388044 0.1057329
000320 f5 89 4b bf b5 e9 73 3f b0 af 3b 3d da 4c b2 be
       -0.7950738 0.95278484 0.045821846 -0.34824258
000330 c1 0c 01 be 89 eb f0 bc ba 7c ad be 96 dd 20 be
       -0.12602521 -0.029409187 -0.3388422 -0.15709528
000340 cd d3 83 3d 26 b1 85 3b b6 66 93 3e 87 f3 27 bf
       0.06436882 0.0040799556 0.287893 -0.6560597
000350 ff 94 85 3d ea 15 a0 be 40 17 1d bf 56 e1 51 bd
       0.065225594 -0.3126672 -0.613636 -0.051240288
000360 ba d1 43 bd 77 b4 36 be 7f 51 aa bd ad e0 2f 3e
       -0.047807433 -0.1784228 -0.083163254 0.17175551
000370 e4 99 fb bd f9 19 84 bd 1b bf 29 be 36 08 6c bd
       -0.12285212 -0.064502664 -0.16576807 -0.057625018
000380 5d 64 8c 3d e2 c0 9b be 8f fe 62 bd 69 35 9e 3c
       0.0685508 -0.30420595 -0.055418547 0.019312577
000390 53 56 60 bd a1 61 7f be 52 51 78 be ba 59 bf be
       -0.054769825 -0.24939586 -0.24249771 -0.37373143
0003a0 d8 4b b1 be c9 28 a1 3d 77 45 95 3e a8 5f fa bb
       -0.34628177 0.07869107 0.2915456 -0.0076407976
0003b0 23 e5 b1 be ec d1 7d 3e 0c 74 04 bf 56 f8 44 bf
       -0.3474513 0.2478711 -0.51739573 -0.7694143
0003c0 5b 00 49 3f c9 18 93 bf 90 cb 26 bf bc a8 9a bf
       0.7851617 -1.1491939 -0.6515436 -1.2082744
0003d0 3d 3c 3d bf 23 f3 2b 3e 62 7d ca 3e bf 63 a6 3e
       -0.7392004 0.16791968 0.39548784 0.32497975
0003e0 a2 f3 b3 be da 68 e2 be 54 17 b2 bc 11 33 82 be
       -0.35146815 -0.4422062 -0.02173964 -0.25429586
0003f0 f1 50 d4 be 23 2d 41 bf 1f fe 0e bf 0b fb ea be
       -0.41468003 -0.754595 -0.5585651 -0.45894656

lstm.weight_hh_l0 f4 [200, 50]
000000 a3 9d 30 bf b7 df 1d 3f 48 e1 59 3f 86 9c 8b 3e
       -0.68990535 0.61669487 0.85109377 0.27267855
000010 a1 03 c0 3e f4 9c 3b be ef 8f 76 3f 85 95 05 3e
       0.3750277 -0.18321592 0.96313375 0.13045318
000020 43 7a 0e 3f 93 51 c4 be af 97 1c 3e 77 77 78 3c
       0.55655307 -0.38343486 0.15292238 0.015165201
000030 fe ae 90 3e 4c 9b 9c be ac 5e 27 be b2 54 8d be
       0.28258508 -0.30587232 -0.16344708 -0.2760368
000040 22 bd 0b bf 1a 2e a0 bf 66 0e 41 3f 73 03 20 bd
       -0.5458547 -1.2514069 0.75412595 -0.03906579
000050 96 98 6e 3f 63 1c ae 3e d6 f3 de 3e 1b 56 a9 3d
       0.9320158 0.34006032 0.43545407 0.082683764
000060 17 ff 16 3f 9a 01 9e bd 39 de 20 bf 12 45 60 be
       0.58982986 -0.07715149 -0.62839085 -0.21901348
000070 2b 24 ac be 60 15 8e be 6f fa 8b be 39 3b 07 3f
       -0.33621344 -0.27750683 -0.27339503 0.5282474
000080 ac 6d 4b bd 5d 77 0f bf 82 a1 f2 3e e2 26 ed bc
       -0.049665138 -0.5604151 0.47388846 -0.028949205
000090 bc 2e a8 be 1d d0 7f be 9e fb d7 3e fb 57 66 3d
       -0.32848155 -0.24981733 0.42184156 0.05623625
0000a0 6e 0c 49 3f 76 d8 94 be c3 23 59 3f 97 f6 34 bd
       0.7853459 -0.29071397 0.84820193 -0.04418048
0000b0 b7 06 0c 3d bb 60 48 3f 9e f1 54 bf 57 d0 47 3d
       0.03418609 0.782726 -0.8318118 0.048782673
0000c0 48 d7 8c 3e 99 c0 28 3f 5a 5a 10 bf 59 c9 84 3e
       0.27507997 0.6591888 -0.56387866 0.25934866
0000d0 bb 0d 27 3f d5 c4 02 3f bb 34 8a bb ae 12 14 bf
       0.65255326 0.5108159 -0.0042177117 -0.57841
0000e0 cc 3f a4 3e 76 0e a1 3f 52 00 4c 3e 4f d5 88 bf
       0.32079923 1.2582538 0.19921997 -1.0690097
0000f0 5f 79 4d bd 54 8a fd bd b1 3c 2a 3f 10 dd bd be
       -0.050164577 -0.123798996 0.6649886 -0.3708272
000100 c2 a8 08 bf 78 f8 08 bf a0 e2 50 be 81 b4 63 bf
       -0.53382504 -0.53504133 -0.2039895 -0.889473
000110 67 5e 94 3f 40 26 6f 3e f4 1c 89 3f 28 8f 42 3f
       1.1591309 0.23354435 1.0711961 0.7599969
000120 d3 fa f3 3e 6c 4a 93 3d 10 82 58 3f 2d d5 64 bf
       0.476523 0.07191929 0.8457346 -0.8938778
000130 db 48 1b bf a6 d5 b7 bf 13 9f 08 bd b4 6f f9 be
       -0.60658044 -1.4362075 -0.03335483 -0.48718035
000140 56 de 87 bf d0 3a 80 3f e3 cf 8f 3e 55 6b 53 bf
       -1.0614727 1.0017948 0.28088292 -0.8258565
000150 b0 43 3c 3f e0 4c 41 be 2a 01 2b bf c7 fa cf be
       0.7354078 -0.18876982 -0.6679865 -0.40621015
000160 74 01 99 3e 88 a2 01 bf c2 20 63 3f f9 ed df be
       0.2988392 -0.5063863 0.8872186 -0.43736246
000170 04 4f 89 3f 69 e1 82 be 9e 68 2e bf 25 eb 05 3f
       1.0727239 -0.255626 -0.68128383 0.5231193
000180 cc 5a 52 be bb 29 a3 3e 69 ec 3c 3f e1 f4 0d 3f
       -0.20542449 0.31867775 0.73798233 0.5545178
000190 05 40 e5 be 8a e2 7f 3f 55 c2 36 3e e5 2f 8d 3f
       -0.44775406 0.99955046 0.1784757 1.1030241
0001a0 f7 f8 98 3e ce 2f b2 be d9 4b d3 3e a3 9d 6a 3c
       0.29877445 -0.34802097 0.41268805 0.01431981
0001b0 c4 c1 4c 3c 84 40 ac bd e4 d5 2f bf 18 0a 76 3f
       0.012497369 -0.08410743 -0.68685746 0.9610915
0001c0 3e 5e a1 3e 06 14 38 be 7c 7f 8f be 54 10 a0 bd
       0.31517214 -0.17976388 -0.2802695 -0.07815614
0001d0 f7 d8 86 be 30 be 18 bf 0e 21 e5 3e 75 69 62 3e
       -0.26337406 -0.59665203 0.4475178 0.22110541
0001e0 19 76 1e 3f 11 d9 e6 bd eb 19 4e 3e 50 27 f4 3c
       0.6189895 -0.11271871 0.20127074 0.029803902
0001f0 82 f2 e0 3d c7 28 3c 3e 54 f4 81 bf 31 08 b9 3e
       0.10983755 0.1837493 -1.0152688 0.36139062
000200 19 2a ce be 33 17 e4 3d fe e7 8b 3e 75 6d 0b bf
       -0.40266493 0.111372374 0.27325433 -0.54463893
000210 78 a7 b3 3e 3f f9 bf 3e ca 9b fa 3d 73 91 15 be
       0.35088706 0.37494847 0.12236746 -0.14606266
000220 cd 48 08 3d b3 8e 72 bf 05 ab e1 3e 1d e7 ca be
       0.033272553 -0.9474899 0.4407579 -0.3962945
000230 59 eb 83 3e 58 77 ab be 5a d6 e8 bd 4e d9 71 be
       0.25765494 -0.3348949 -0.11369009 -0.23618051
000240 43 09 1d 3f 62 1d 3e 3f 6d 33 1a bf a7 76 e8 3e
       0.6134226 0.74263585 -0.6023472 0.45403025
000250 8a d5 58 be c5 23 28 3e e8 8b f9 be 9a b4 3f be
       -0.21175209 0.16419895 -0.48739552 -0.18721238
000260 1e dc e5 3e a1 f7 06 3f 5d 9c c3 3e 25 38 f6 be
       0.448945 0.527216 0.38205233 -0.4808971
000270 af 0e 45 3f a8 fa df bd 3b e9 84 3e fa 53 7f bf
       0.7697553 -0.10936481 0.2595919 -0.99737513
000280 b0 1e b4 be ee 6d 2e be 24 b6 4d 3e 51 e7 47 be
       -0.35179663 -0.17034122 0.20089012 -0.19521834
000290 9a 0e 19 be 4b 15 1b bd 38 5a f0 be 21 4d a2 bf
       -0.14946976 -0.037862103 -0.4694383 -1.2679788
0002a0 6e 59 9b 3f 53 8a 93 3d 0e ed bb 3e db b5 b2 3e
       1.2136667 0.072041176 0.36704296 0.3490437
0002b0 de c6 a3 3e ec 0c b1 bd 1a 8e 06 3f f4 eb fa bd
       0.3198766 -0.08645043 0.5256058 -0.12252036
0002c0 d9 fc 58 bf 42 6d 71 be 22 96 43 3f e8 a4 19 bf
       -0.84760815 -0.23576835 0.7640096 -0.6001725
0002d0 25 5d f6 be 49 93 76 3f 50 de 3a 3e c3 11 b4 bf
       -0.4811794 0.9631849 0.18248868 -1.406792
0002e0 44 5e 27 3f 5e d9 02 3f 24 1d 0f bf 92 b5 19 bf
       0.6537821 0.51112926 -0.5590384 -0.6004268
0002f0 ef a2 8a 3e 33 2d a8 3d d9 75 5a 3d c4 94 a8 be
       0.27077433 0.08211746 0.053335045 -0.32926
000300 a7 03 e2 bd 2d 6b 58 be fc 0f a6 3e 39 e9 e9 3e
       -0.11035853 -0.21134634 0.3243407 0.45685747
000310 c2 ca 8a bf 63 1c 8d 3e 6b 06 56 3e 00 5a b6 3e
       -1.0843127 0.2756072 0.20900886 0.3561554
000320 e5 23 d6 be 5e f3 03 3f 31 67 1a 3f a7 dc 73 be
       -0.4182426 0.51543224 0.6031371 -0.23814641
000330 7d 8a 12 bf 25 11 38 bf 6d 2f 8f 3d 39 f9 79 3f
       -0.57242566 -0.7190116 0.069914676 0.9764591
000340 05 49 ff be f9 3a a6 bd 9c 94 59 bf e7 38 90 be
       -0.49860397 -0.08116717 -0.84992385 -0.28168413
000350 23 86 c7 3e 0a d4 01 bf a3 6c f2 3d 00 5c a6 be
       0.38969526 -0.5071417 0.11837127 -0.32492065
000360 d7 e6 6a 3e 7a 56 1b 3f 96 d6 41 bf ef 2d 86 3e
       0.22939621 0.6067883 -0.7571806 0.2620692
000370 d0 b6 6f 3f 16 34 8c 3e 10 f0 e9 be 6b 18 40 bf
       0.93638325 0.27383488 -0.45690966 -0.7503726
000380 ae 7d b8 bd d9 f5 06 bf b3 74 19 be a9 f1 94 bd
       -0.090083465 -0.52718884 -0.14985923 -0.072726555
000390 c7 ce f5 be 50 93 0f bf 32 2e ba 3e 5c 5f 0b 3e
       -0.4800932 -0.56084156 0.3636337 0.13610595
0003a0 1e 60 e5 3e cd 61 9f 3f 07 ad 32 be 7c 6e b7 bc
       0.44799894 1.2451721 -0.17448817 -0.02239155
0003b0 5d 3d 83 bd e2 e8 d1 3b 75 df 3e 3e a6 76 65 bf
       -0.064081885 0.0064059356 0.1863993 -0.8963417
0003c0 01 64 07 bf 49 00 33 bf a1 0b 5a 3f 4a 33 a4 be
       -0.5288697 -0.6992231 0.85173994 -0.3207038
0003d0 af 56 43 3f b6 25 97 3f 87 c4 26 be 77 c3 6d 3c
       0.76304144 1.1808383 -0.16285907 0.0145119345
0003e0 bd 3d be be bc a6 f5 3d 7e 7d 89 bf cd 7a d1 3c
       -0.37156478 0.11994693 -1.0741422 0.025571251
0003f0 31 12 2a 3f c9 fe 98 3e 8f 32 28 3d 0b 46 2d bf
       0.6643401 0.29881886 0.04106384 -0.67685

lstm.bias_ih_l0 f4 [200]
000000 c7 cd 56 be 33 f4 1c be aa 13 fc bc a8 5d 91 bd
       -0.20976935 -0.1532753 -0.030771095 -0.07097942
000010 2c 78 9f bd dd 4c 83 bd 3f 2b 98 3c 65 db 58 be
       -0.07786593 -0.06411145 0.018575309 -0.21177442
000020 8e 9a c8 be ff 43 4b be 62 59 73 3e 5b 3c 23 be
       -0.39180416 -0.19850157 0.23764566 -0.15940993
000030 46 43 88 bd c3 25 db bd 19 58 5e bd da a8 3d bd
       -0.066534564 -0.10700562 -0.054283235 -0.046303608
000040 bb 10 36 3c 05 04 26 3f 47 a9 79 3d 39 48 e8 bd
       0.011112387 0.64849883 0.06095245 -0.113419004
000050 9e be 8e 3f 4e dc 59 bd 79 89 34 be 07 c2 c2 3d
       1.1151922 -0.053188615 -0.17630567 0.09509664
000060 f9 82 f4 3d 17 76 90 be 32 8c 96 3d 3a 95 76 be
       0.119390436 -0.28215095 0.07350959 -0.24080363
000070 d0 95 97 bd 15 ab 27 be c4 96 01 be cc 92 36 be
       -0.07401621 -0.16373856 -0.12655169 -0.17829436
000080 90 9d fc 38 c1 a4 b8 bd 4e 76 17 be 3e 05 21 bd
       0.00012045645 -0.09015799 -0.14791223 -0.03931164
000090 46 50 01 bd 50 30 8a be 11 66 10 bd 02 04 dc bd
       -0.031570695 -0.26989985 -0.035253588 -0.10742952
0000a0 f0 54 dc bd ad f5 35 bd 78 96 2a 3d ba 40 70 be
       -0.10758388 -0.044423748 0.041647404 -0.23462191
0000b0 2b 1a fa 3d 79 6c 4f bd 88 60 84 3e bb 12 7e 3c
       0.122120224 -0.050640557 0.25854897 0.015507395
0000c0 a8 9b 3e be d1 5f 89 be ab e8 b1 3e de 8b 50 bc
       -0.18614066 -0.26830915 0.34747824 -0.012728659
0000d0 76 8a 49 be 21 8f 44 3e e7 9d 30 3e d8 4a 51 bd
       -0.19681725 0.19195224 0.17247735 -0.051096767
0000e0 69 cf 27 3d 9a 89 99 3e e8 79 2d be 7a 79 06 be
       0.040969286 0.29987794 -0.16941035 -0.13132277
0000f0 ce 66 83 be a1 1b 13 3e 72 98 ef bd 12 53 18 be
       -0.2566437 0.14366008 -0.116989985 -0.14875439
000100 5c 39 de bc 3e da 8e bd 7a 91 f7 bd f4 81 eb bd
       -0.02712696 -0.0697522 -0.12088294 -0.11499396
000110 fd 96 f3 be 49 ef 29 be f7 85 36 bf bb 7b 82 3d
       -0.47576132 -0.16595186 -0.71298164 0.06371256
000120 d2 33 cb bd a6 87 82 3d 70 dc d8 bb ad dc a4 bd
       -0.09921993 0.06373529 -0.006618075 -0.08049903
000130 07 f4 a5 be e8 2c 2b be 7a 28 a8 bd 0e 12 5b 3e
       -0.3241274 -0.16716349 -0.08210845 0.21393606
000140 13 7e a4 3c 04 38 4f bd a6 37 f0 bd fe 1d e1 bc
       0.020079648 -0.05059053 -0.11729364 -0.027480122
000150 28 d9 49 3e 53 8e 5f 3d 58 c5 95 3d 2a eb 9d be
       0.19711745 0.05457909 0.07313031 -0.30843478
000160 ff 9e 37 3d c1 7d ee bd 52 ec 02 be 44 5f cf 3d
       0.044829365 -0.116450794 -0.12785462 0.10125592
000170 57 05 61 bd 5f 0b 6a bd 85 48 bf bd cc 57 20 3e
       -0.054936733 -0.05713975 -0.09340004 0.15658492
000180 a0 bf 7f be 73 cc b7 bd 35 45 61 3d 0d 12 63 3d
       -0.24975443 -0.089745425 0.05499764 0.055437136
000190 67 6b 15 bd 6b 10 9a 3d 61 35 82 3d fb 35 6f 3c
       -0.03647938 0.07522663 0.063578375 0.014600272
0001a0 fd 86 b7 bd 93 b1 b0 3d 28 6e 83 3d 1b 6c 02 3e
       -0.08961294 0.086276196 0.06417495 0.12736551
0001b0 2a 2f fe 3d 07 c7 77 bd 92 01 a9 3b 6c 9e 7c be
       0.124113396 -0.06049254 0.005157658 -0.24669808
0001c0 cc 7c df bc 59 8b 28 3e f2 37 89 3d fb 5c b2 3b
       -0.027281187 0.16459407 0.06700124 0.005443213
0001d0 a0 bd f2 bd e3 ed 3b be b2 cd 79 bd 81 a0 17 3d
       -0.11852574 -0.18352465 -0.060987182 0.037018303
0001e0 69 ea 92 3d f0 1e 71 3d 66 78 cd bd b2 2c ae 3a
       0.071736164 0.058867395 -0.1003273 0.0013288467
0001f0 33 12 3d bd 52 2a bc ba 47 1b 4d bd 1f 81 19 bd
       -0.046159934 -0.0014355874 -0.05007484 -0.037476655
000200 d6 c8 87 bd 10 de 23 be 11 2e 9e 3c c5 6c de 3d
       -0.06630103 -0.16002679 0.019309076 0.1086059
000210 62 a6 1f be 25 8c ed 3d f2 1c ec bd b3 5b 14 3c
       -0.15590814 0.11598996 -0.115289584 0.009055066
000220 2c 3b 31 bd e3 20 06 3e a2 6a 05 bd 81 0f 00 bd
       -0.04326932 0.13098483 -0.032572396 -0.031264786
000230 84 18 12 3e 21 92 2d 3e c7 55 df 3c 90 57 d5 3d
       0.14267164 0.16950275 0.027262582 0.10417092
000240 05 8e 25 bd 1b 7d 4f 3e 52 91 5b be 28 8d 69 be
       -0.040418644 0.20262568 -0.21442154 -0.22807753
000250 82 4c 40 3e 7f 6d 3c 3c 9e 8f 1a 3d 37 37 38 bd
       0.18779185 0.011500715 0.03773462 -0.044974532
000260 49 b1 21 bd 9a 40 47 3e 35 21 44 bd 4f a2 3f bd
       -0.039475713 0.19458237 -0.04788323 -0.04678565
000270 99 ac 9a bd e9 1f ee 3e 7b e3 6c bd 33 d5 b6 bd
       -0.07552452 0.4650872 -0.05783413 -0.08927383
000280 95 46 4d 3e aa 68 5d 3d 72 40 e1 3b f2 c7 ca 3c
       0.20046456 0.054054894 0.0068741376 0.024753544
000290 d2 3f 03 3e 51 49 4f 3d a3 ea 07 bc 7c 04 43 3f
       0.12817314 0.05060703 -0.008295688 0.7617872
0002a0 a8 ee c1 3e a7 a0 b1 bd 93 af 89 3f 9f c9 dc 3c
       0.37877393 -0.0867322 1.0756706 0.02695161
0002b0 14 71 e1 bc a8 21 7c 3d 88 b9 f2 3b 68 85 e8 bd
       -0.02751974 0.061555535 0.007407371 -0.1135357
0002c0 13 e2 88 3e 5a bf 24 be bc 07 90 3d 57 40 f3 bb
       0.2673498 -0.1608862 0.07032725 -0.0074234414
0002d0 24 51 b9 3b 80 44 aa bd af 19 5a 3c 0b 21 33 3c
       0.0056554247 -0.083138466 0.0133117875 0.010933171
0002e0 2e f0 3e bd b5 fa 09 3e 82 fc 95 bd 24 6c 02 bd
       -0.046615772 0.13474543 -0.07323553 -0.031841412
0002f0 ad 68 0b 3d 37 82 fa bc e5 6d b1 3d b1 87 50 3d
       0.034035373 -0.03057967 0.08663539 0.050910655
000300 18 a7 91 3e f7 b9 17 be 55 7a 62 3e fc 86 90 3e
       0.28447795 -0.14817034 0.22116978 0.28227985
000310 c8 73 ed 3e cf d8 70 bd 04 db 2f 3e 42 75 ca bc
       0.46377397 -0.058800515 0.17173392 -0.024714116

lstm.bias_hh_l0 f4 [200]
000000 87 86 1d bd 7d f0 50 be 88 e6 bb bd f2 e5 d5 bd
       -0.038458373 -0.20404239 -0.0917483 -0.10444249
000010 ce 31 f0 bd e0 5f e3 bd 78 4f 67 3c dd b9 8c be
       -0.117282495 -0.11102271 0.014118068 -0.27485552
000020 46 bd 11 be e4 34 b0 be 17 72 ca 3d 95 ed 8e bd
       -0.14232358 -0.34415352 0.09885042 -0.06978909
000030 39 21 87 be c0 62 10 bd c9 f9 c2 bd 12 59 02 be
       -0.26392534 -0.035250425 -0.09520299 -0.1272929
000040 02 60 e2 bc 39 5a e9 3e 33 15 33 3e a3 c4 33 be
       -0.02763367 0.45576647 0.17488556 -0.1755548
000050 d3 bb 71 3f 87 8a a2 3c c9 cf 4d be ba 53 ff 3c
       0.9442722 0.019841446 -0.20098795 0.031167854
000060 10 e6 1e bd 61 f2 d8 be 8d e7 73 3c e7 ec 96 be
       -0.038793623 -0.4237242 0.014886749 -0.29477617
000070 97 50 92 3c 64 66 75 3d 14 eb 83 bd 1a c4 e3 bc
       0.017860694 0.0599121 -0.06441322 -0.02780347
000080 0b 5f f2 bc 1a a5 66 be b5 85 ff bc 04 b9 b6 bd
       -0.029586336 -0.22523919 -0.031191686 -0.08922008
000090 9a 14 2f bd fe 15 7c be e9 cc 85 3d a7 1d 2d be
       -0.042744257 -0.24617764 0.06533224 -0.16905843
0000a0 9e 60 8b bd 94 25 ef bd 42 49 89 3d 0c 7e d1 bd
       -0.06805538 -0.11677089 0.06703426 -0.1022912
0000b0 fb 41 11 3d 1b 73 75 be ea 75 e9 3e d7 d5 05 be
       0.035463315 -0.2396969 0.45597774 -0.13069855
0000c0 0f 28 3a bc 4b ed 87 bd 89 a1 0e 3f 64 c9 10 bd
       -0.01136209 -0.06637057 0.55715233 -0.03534831
0000d0 d9 de 8f 3d fb 04 71 3d 43 20 5c 3c 1a ec 53 3d
       0.07024927 0.05884264 0.013435426 0.051738836
0000e0 c2 91 75 3e 58 d0 48 3e c9 18 97 be ef a8 29 be
       0.23981383 0.19610727 -0.29511097 -0.1656835
0000f0 fa 8f ea bd 1a 44 8e 3d af 14 89 bd b4 5f 2b be
       -0.114532426 0.06946583 -0.06693398 -0.16735727
000100 3f fd 29 bc db 20 00 be 56 95 2c be 4d aa 64 be
       -0.01037532 -0.12512533 -0.16853842 -0.2233059
000110 ab 86 d4 be 23 1d 71 3d d5 33 35 bf 8c 1d 25 3c
       -0.41508994 0.058865678 -0.70782214 0.010077845
000120 f6 80 01 be c1 ad c9 ba 3f ac 26 3e 58 93 9d be
       -0.12646851 -0.0015386866 0.16276644 -0.30776477
000130 2f 5c c5 be e4 58 69 be a6 6f ef bd 91 1a 19 3d
       -0.38546893 -0.22787815 -0.11691217 0.03737885
000140 42 19 b6 3d c2 7c 4d bd 93 06 0e bd 9f 59 9f bd
       0.08891536 -0.050167806 -0.03467424 -0.07780766
000150 1c 7c 1b 3e d0 e0 41 3e 9c e4 95 3d 1e d3 cb be
       0.15184063 0.18933415 0.073189944 -0.39809507
000160 1f cc fe 3d 3e b8 46 be 14 ed 3e bd 54 a3 e6 bd
       0.12441277 -0.1940622 -0.046612814 -0.11261621
000170 59 af d0 3c 96 9a 3b bb 5b 97 88 3d 05 cc bd 3d
       0.025474237 -0.0028626076 0.06669494 0.09267429
000180 5d 47 47 be de 3e 90 be 0c cb a1 bd a6 d8 ea 3d
       -0.19460817 -0.28172964 -0.07900056 0.11467104
000190 f1 e8 3a be 2b 70 15 3e 4a c6 46 3d 9d 0a e0 3b
       -0.18252923 0.1459357 0.048528947 0.0068372027
0001a0 24 bf f1 bb 15 da db bd fa 6a 18 3e 58 32 a7 bd
       -0.007377522 -0.10734955 0.14884558 -0.08163899
0001b0 12 9e 37 3e c2 ed 31 be e8 55 d8 3d 7b 2f 36 be
       0.17931393 -0.17375854 0.1056326 -0.1779155
0001c0 c8 d0 8f bd 19 11 8b bd 53 ba 84 bd fc eb fa bb
       -0.07022244 -0.067903705 -0.06480851 -0.007657526
0001d0 b1 e0 2b 3d 86 a1 8d bd 76 e3 60 3d 57 c6 04 be
       0.04196233 -0.06915574 0.054904424 -0.12966286
0001e0 6c 33 30 3e db 41 23 3c 1f 75 73 3d dc 69 1d bd
       0.17207116 0.009964432 0.059437867 -0.038431033
0001f0 81 78 91 3d 3b 1e 21 3c 67 d1 1c 3d 71 4a bb bd
       0.071030624 0.009833868 0.03828564 -0.09145058
000200 e1 f2 30 be 02 1e b3 bd d7 fb 86 3d 89 23 a0 3d
       -0.17280151 -0.08745958 0.065910034 0.07819278
000210 fa 7b 18 be c7 a0 1b bd 56 0d 1f 3d 49 6c ac 3d
       -0.14891043 -0.037995126 0.038831078 0.08419091
000220 3b f9 91 bd ed 62 94 3d 1b 12 d1 3d f4 76 2f bd
       -0.07127615 0.07245431 0.102085315 -0.042838052
000230 54 40 1f 3e 1f d7 30 3d c0 4c 97 3d b0 bf 02 3e
       0.15551883 0.043173905 0.07387686 0.12768435
000240 64 59 92 bd f3 bc d8 3d c2 1e 68 be e0 bb 66 be
       -0.07145956 0.10582914 -0.22667983 -0.22532606
000250 8a f9 9d 3d 77 b9 81 3d da 21 c7 3d 69 3a 3f 3e
       0.077136114 0.06334203 0.097232535 0.18674625
000260 e7 7b 1e 3d fd 2c cc 3d 07 eb 1f bd d5 7a 7c bd
       0.03869238 0.09969518 -0.0390425 -0.06164058
000270 97 c3 da bd ec c8 cc 3e bb b8 3f be 71 93 c5 bd
       -0.10681837 0.3999704 -0.18722813 -0.09647263
000280 4c e5 c2 3e 49 a6 5d 3e 8e 1e 50 be 02 10 79 bd
       0.38065565 0.21645464 -0.20324156 -0.060806282
000290 81 8e 98 3d 45 ec 95 bc ef 86 2b be ca 56 38 3f
       0.074490555 -0.018301139 -0.16750692 0.7200743
0002a0 9e b9 ba 3e 4d 61 85 bd 63 e0 60 3f 95 b8 49 be
       0.3646974 -0.06512699 0.87842387 -0.19699319
0002b0 13 01 cb bd 7f 0f cc 3d 70 69 66 3e 01 26 6f bd
       -0.09912314 0.09963893 0.22501159 -0.058385853
0002c0 c0 43 7f 3e ce 64 d4 39 50 e0 41 3e 04 76 70 3d
       0.24928188 0.00040510896 0.18933225 0.0587063
0002d0 82 d8 f6 3d dc ef d5 bd c2 e4 4f 3d c5 89 d3 bd
       0.12053014 -0.1044614 0.05075527 -0.10329012
0002e0 ff a9 db bd 2a a6 b0 3c 9d 2e f9 3a 99 a6 4d be
       -0.107257836 0.021563608 0.0019011084 -0.20083083
0002f0 44 41 82 bc 73 fb 0b be 25 e4 0f 3e 95 f5 17 3e
       -0.015900262 -0.13670139 0.14051874 0.14839776
000300 f2 9f 13 3e d8 da 84 3d 97 23 6a 3e 76 63 79 3e
       0.14416483 0.06487054 0.22865139 0.24354348
000310 bc 20 d0 3e b9 46 c9 3d 21 b1 92 3e 42 c8 67 be
       0.40649974 0.098279424 0.28650764 -0.22634986

linear.weight f4 [8, 50]
000000 fe 26 9b be a2 f3 03 bf 01 c7 4f be d9 b1 3e 3e
       -0.30303186 -0.5154363 -0.20290758 0.18622531
000010 77 80 33 3f 23 e4 3f 3f 0c 64 83 bf 1c 46 b4 bf
       0.70117897 0.74957484 -1.0264907 -1.4083896
000020 96 a8 7d 3e 88 9b 9e 3e a1 1b bf 3e 06 7c 8e be
       0.24771342 0.30978036 0.37325767 -0.27828997
000030 bf 4f c3 bb f4 90 52 3f b4 31 8b be 94 b5 2a bf
       -0.005960434 0.8225243 -0.27186358 -0.66683316
000040 85 9b 4d bf a4 90 19 3e a5 95 39 3f d4 27 fd 3e
       -0.8031543 0.14996582 0.72493964 0.4944445
000050 37 0b 91 bf 07 25 fe 3e 6e 1c b6 3f 34 1c 03 be
       -1.1331547 0.49637625 1.4227426 -0.12803727
000060 b5 75 95 3b 0d 6b 19 3f 8f 3d 2f 3f e2 02 4d bf
       0.004561151 0.5992897 0.68453306 -0.80082524
000070 fb 7d 9b 3f 55 72 3d bf 9e c3 ce be 9e e6 8e 3f
       1.2147821 -0.7400258 -0.4038362 1.1164129
000080 4a e9 1d bf fd 71 a5 bf 94 90 56 3e df f3 52 3f
       -0.61684096 -1.2925411 0.2095359 0.8240337
000090 7c 4d 44 be b8 8f ed 3e bb ee 3c bf 7d e1 17 40
       -0.19170183 0.4639871 -0.73801774 2.3731377
0000a0 c2 eb 86 bf e9 c7 7d 3f e7 cb b0 be 5a 86 0a be
       -1.0540698 0.99133164 -0.34530565 -0.13527814
0000b0 fc 16 81 bf 78 ed a8 bf f5 00 5c bf 33 ce 25 3f
       -1.0085139 -1.319747 -0.8593896 0.6476776
0000c0 a7 60 b4 3f 89 6d a0 3e 8a 6c b3 be cc 36 9b 3e
       1.4091996 0.3133357 -0.35043746 0.30315244
0000d0 18 8f c8 bf e6 10 0f bf e7 77 e8 3e 9d 67 2c bd
       -1.5668669 -0.5588516 0.45403978 -0.042091
0000e0 e6 15 07 c0 e6 8d bb 3e f0 e6 18 be 00 4d 83 3f
       -2.1107116 0.36631697 -0.14931846 1.0257874
0000f0 87 b7 52 bf 66 aa 82 3e 77 0d 99 be be 62 e4 3e
       -0.8231129 0.2552063 -0.29893085 0.44606584
000100 98 23 10 bf e7 80 2d bf 53 3c 20 3f b2 f9 78 be
       -0.5630431 -0.67774814 0.6259205 -0.24314001
000110 54 1f 75 3e 78 c8 70 3f 83 50 9d 3f c2 2f 91 be
       0.23937732 0.9405589 1.2290195 -0.2835675
000120 00 5d 7d 3f 94 bc b8 3e 34 a3 a3 3f 17 e0 4c bf
       0.9897003 0.36081374 1.2784181 -0.80029434
000130 4e 82 e6 3e 03 c7 d0 3f 9b e4 75 3f 8c 74 f5 be
       0.4502129 1.6310734 0.9605195 -0.4794048
000140 f0 95 96 3f 05 0f f5 bf 23 01 3e 3f d5 ab 5b 3e
       1.1764507 -1.9145209 0.74220484 0.21452267
000150 e2 34 d0 bf 37 82 25 3f 4c e0 d3 3d c4 24 a4 be
       -1.6266139 0.6465182 0.103455156 -0.320593
000160 2a d4 a2 be 04 d2 30 bf 18 1d 10 3f 34 fe 4b 3e
       -0.31802493 -0.6907046 0.56294394 0.1992119
000170 81 e4 89 bf 50 cc 0a be 49 dd 9b 3d ef de a9 3e
       -1.0772859 -0.13554502 0.07610566 0.33177897
000180 e9 32 ab 3f c2 12 e4 be 68 93 8f bf 2f 4a 91 3f
       1.3374912 -0.4454556 -1.121686 1.1350764
000190 04 5c 1d bf 4b ed 3c bf c5 42 c0 3e 00 de 54 bf
       -0.6146853 -0.7379958 0.3755094 -0.83151245
0001a0 6e 87 bb 3d c0 af 22 bf c1 90 9f 3f 24 a4 78 be
       0.091566905 -0.63549423 1.246605 -0.24281365
0001b0 5a 84 4c be ca e8 a5 3e df 61 d1 be c7 95 86 3e
       -0.19972363 0.32404166 -0.40894982 0.26286146
0001c0 66 b3 49 3f be 09 0c bf ac 30 57 3e ef 48 ac be
       0.78789365 -0.54702365 0.2101466 -0.33649394
0001d0 d7 f5 8d 3e 22 1d c6 3e b5 d9 b5 3e f8 b1 c6 bc
       0.27726623 0.38694102 0.3551766 -0.024254784
0001e0 b6 e0 75 3d 90 b5 2e 3e e4 32 c6 3e b0 83 9a be
       0.060028754 0.17061448 0.387107 -0.30178595
0001f0 fc 64 c5 bd 18 8d da bf dd b1 8a bf 1e 02 ca bf
       -0.09638402 -1.7074308 -1.083553 -1.5781896
000200 ff 49 12 3f 68 24 c9 3e 26 b9 5f 3f 3b 15 d6 3e
       0.5714416 0.39285588 0.8739189 0.41813073
000210 f3 2f c4 bd 76 cd 02 3f 59 35 0a be a5 a4 78 3f
       -0.09579458 0.5109476 -0.13496913 0.9712623
000220 ba f2 ed 3e e3 8f 7b be c6 6c 92 3f 57 99 09 bf
       0.46474248 -0.24566607 1.1439445 -0.53749603
000230 0c 4c 0c 3e 36 42 10 3f ba 1f 80 3f f0 ed 0b 3d
       0.13700885 0.5635103 1.0009682 0.03416246
000240 70 27 50 3f 88 d3 81 3f 11 0d 3f bf 55 b6 6a 3f
       0.81310177 1.0142679 -0.7462931 0.91684467
000250 bc e3 ba be 4b ae 26 3e 84 6a ae 3f 09 6e 61 3e
       -0.36501873 0.16277425 1.3626256 0.22014631
000260 4a aa 17 bf 99 8c 8a 3e 19 25 15 3e 2c ea 17 3d
       -0.59244215 0.27060392 0.14564933 0.037088558
000270 d9 9e 46 3f 47 58 5a 3f 7a af 85 bf 2e ac fd 3e
       0.7758613 0.8529095 -1.0444176 0.49545425
000280 c4 7f 2f be 74 a8 ca 3e 5f 4c 1c 3e c5 aa 03 3f
       -0.17138582 0.39581645 0.15263508 0.5143245
000290 a3 64 42 bd 35 d8 55 bf 29 75 24 3f e5 32 e0 bd
       -0.047459256 -0.8353303 0.6424127 -0.10947207
0002a0 aa ca 27 3f a5 92 e2 3e bc a0 34 bf d7 c0 f9 3d
       0.65543616 0.44252506 -0.7055776 0.121949844
0002b0 d7 e5 2f bf 39 7f 27 bf eb bb ac bf a5 23 a3 3d
       -0.6871008 -0.654285 -1.3494848 0.07965783
0002c0 29 de 9a 3d a3 ad 2d 3f 4b b3 93 bd 6b 1d 38 3f
       0.07561905 0.67843074 -0.07211932 0.7191989
0002d0 28 26 54 bf 19 b4 90 bf c8 4c 8a 3b 10 8f 4c bf
       -0.8287072 -1.1304961 0.004220579 -0.79905796
0002e0 65 18 9b 3f af 10 ff bf b1 0e 84 bd 3d 0d 91 bf
       1.211682 -1.9926966 -0.06448115 -1.1332165
0002f0 d9 22 4c bf c1 86 66 bf f6 41 3d bf 26 a3 91 bf
       -0.79740673 -0.9004937 -0.73928773 -1.1377914
000300 42 dc 74 3e 82 44 76 3e b7 a7 3d bf 19 66 b5 bf
       0.23912147 0.24049571 -0.7408404 -1.4171783
000310 7e b1 86 bf af 1c 70 3e c4 27 40 be 10 61 9a 3d
       -1.0522916 0.23448442 -0.1876517 0.075380445
000320 dc ef 3b 3f 89 ab 29 be 8e 7d 5e 3e 8d 33 ca bf
       0.7341287 -0.16569342 0.21727583 -1.5796982
000330 d6 f2 af bf c7 cd 39 3e 55 9e 83 be 88 5a 75 3f
       -1.3745983 0.18144904 -0.25706735 0.95841265
000340 4e 35 de 3d e0 7f b2 bf f3 e8 fd bd 2c 03 24 c0
       0.10850011 -1.3945274 -0.12397947 -2.5626936
000350 a6 25 23 bf a9 04 26 3d d0 d6 e2 be c3 78 f7 be
       -0.6372932 0.040531788 -0.44304514 -0.4833432
000360 e5 8a 6c bf ff 2a 56 3f b7 e4 24 c0 a8 c6 d7 bf
       -0.92399436 0.83659357 -2.5764596 -1.68575
000370 65 ab 96 bf a2 a3 6a be ad aa 20 bf e8 06 e4 bf
       -1.1771055 -0.22913983 -0.6276043 -1.7814608
000380 b9 2e 94 bf e2 0a c6 bd dd 48 03 40 f3 b1 83 3e
       -1.1576759 -0.096700445 2.0513222 0.25721702
000390 53 e3 01 3f 33 89 2e bf 1d 5d c1 be 88 0d b5 3e
       0.50737494 -0.681781 -0.37766352 0.35361886
0003a0 a7 fd 1b bf 00 0a fb 3d 10 81 80 bd 48 ce c5 be
       -0.6093392 0.12257767 -0.06274617 -0.38633943
0003b0 05 1e 77 3f 7e ab 04 3f d6 1f c8 3e 73 38 3f be
       0.9653018 0.51824176 0.3908679 -0.18673877
0003c0 06 f3 61 bf 5d a3 69 3f bc ae 05 3f d3 d6 38 3f
       -0.8826145 0.912649 0.5221975 0.72202796
0003d0 11 d3 86 bf 4b 08 7a be 79 e1 22 bf 31 fe 3e bf
       -1.0533162 -0.24417226 -0.63625294 -0.74606615
0003e0 c2 96 46 3f 3d 9e cb 3d 6c bd bd 3e ff 66 27 3e
       0.7757379 0.09942291 0.3705858 0.16347884
0003f0 95 24 b3 3f 71 e9 b6 3e 95 bf c5 3f f0 42 84 3e
       1.3995539 0.35724977 1.5449091 0.2583232

linear.bias f4 [8]
000000 36 13 ab bc 54 14 fc bd a9 7e 10 be c6 6d a1 3d
       -0.020883184 -0.12308565 -0.14110817 0.07882266
000010 20 6c 15 be b4 37 6b 3e fe 02 b0 bd b3 e2 4b 3e
       -0.14592028 0.22970468 -0.08594321 0.19910698
