lstm_model.pth (torch, 51433 bytes, 10 tensors)

lstm.weight_ih_l0 f4 [120, 6]
00000000: 3151 023f bf1b 0abf 06eb 413d 1c07 a53e
00000010: 40a5 1c3e abff dc3e 7592 653f 2110 bf3e
00000020: 2426 cbbe 2445 973e db09 ddbd bfd5 253f
00000030: c366 033e e421 883d dc59 2abf ac0d 353e
00000040: a27e 433e 758f 85be eccb 973f 1762 66be
00000050: eda9 13bf 4f1b a3be b154 08bf b865 f63e
00000060: 96d7 7e3e 3cd7 77bf b08a 163f 60ea 87bd
00000070: 55d4 273f 5afa c43e f83b e0bf 9c79 ad3f
00000080: 28a4 aabc fa39 323f 509c 053f 71fc c8bf
00000090: 3651 0bbf 0cc8 38be ede0 243e ae7e 8f3d
000000a0: 60cd 443e 0ac9 983e bc38 8f3e cb43 1d3f
000000b0: 6a73 043f 63f8 ba3e a316 0c3f 7464 653f
000000c0: 3667 00bf 2946 db3e aee8 4fbc 4f31 5dbe
000000d0: 6054 443f 0892 1a3e 362b 973f 235f af3e
000000e0: 65d2 a83f cb48 40be 8981 a93e 00e9 353f
000000f0: 0abd a23e 7eb0 e8be bf79 133f 76ff afbd
00000100: 58e8 2e3f 9282 5d3f 2bb0 693f 9e94 60bf
00000110: 8324 f0be a5cb 55bf 8068 06bf cd6a 723f
00000120: 7317 963e f5cd 643f ae79 ddba 74f6 5c3f
00000130: 24c9 db3d d7f1 613f 38b3 683e b060 1f3f
00000140: f082 3ebd a65f 8f3e b105 cc3d f068 9e3e
00000150: 7ee1 2ebf f909 883e 1c36 f1be d804 ab3e
00000160: 0a08 c43e 149b 2a3d 02df 383e 92f2 4c3f
00000170: c471 fe3e 0792 b03e 0892 223d 7200 7fbd
00000180: 0ab0 883f 5e1b f4be 21eb 933e 4d71 66bd
00000190: 5066 fbbe 7702 acbe 0ade eebe 7554 44bf
000001a0: 398b 7dbe ebd7 efbe f750 813e 46c5 b73e
000001b0: 3a4e 1ebe 01b5 103e e195 043f 49a2 d93e
000001c0: 4e2e fe3d c89c a63e 76f7 a23e 18d0 873d
000001d0: 2f9b 5c3e d79e 033e f982 97bd 7e81 0b3f
000001e0: 2060 07bf 380c a93e b701 40be 46d1 6e3e
000001f0: d1f3 003f 20b2 d93d 96c8 493f 4819 df3e
00000200: 9203 dc3d 6ce6 153f b3ab 1e3e 49c9 913e
00000210: b5d9 55be 90bc 2d3e 5b77 de3e 9cbf d83e
00000220: a9e0 4e3e 4333 3a3f 6a80 84be dfa6 b23d
00000230: 3d9f bfbe 3f8c 13be 1e07 d9bd 0121 953e
00000240: 7770 453f 5f5a 53bf 6c26 e93c bf19 1cbf
00000250: be19 09bf 3ab1 8a3e 0021 cdbf ff83 dfbe
00000260: 27b8 b13f 4e56 813e d7a0 8c3f e12b 6abf
00000270: eadf 223f 78f9 fd3d e124 ccbd 2134 013f
00000280: 6fdc ae3e bf9e 543e df2e 32bf 079f 573e
00000290: ed68 b6be 5172 143f eb15 a8ba 046f 323e
000002a0: a6cc 0a3d d180 02bf c7f3 3c3f e03a 143e
000002b0: 3b1b 3ebc 3094 a43e 2316 923d ae02 c43d
000002c0: 35c5 a4bd fe90 b7be 2574 723a 274f ee3e
000002d0: 100c cbbe cdce ce3d 5ae8 86be 4b94 943e
000002e0: cdf6 e63e aa8f 183e 8a93 00bf a83f ff3c
000002f0: 62c8 aebe 7547 d73e 97c0 733e 50a3 1dbc
00000300: dd3c 26be 9b4a d43d c937 10bf b811 4bbd
00000310: be3f c43e 3033 be3a 5548 b33d 7c68 aabe
00000320: e0cd 8cbe 7523 7ebe 5eab bc3d 17a9 ac3d
00000330: 73d2 c73e 0c30 94bd b194 593e b270 443e
00000340: 9bf3 8e3e f795 b2be ac3b b13e 32bb 1abe
00000350: 9b67 373f 364e 86be 4f57 8f3e a19e 033f
00000360: 6032 32be dfe6 963e cf35 b13e f4b4 013e
00000370: 745f 6c3e 2b57 943d c511 9cbe 6f5f 84bd
00000380: 2dc7 2abe 03a1 06be dff0 673d 5718 d13d
00000390: b367 12be e815 ff3c 2205 413e b06a efbe
000003a0: 83ad c0bd 83d4 86be c649 043f f488 363f
000003b0: cdcc c9be 4d82 b9be e387 cc3d a2ff 94bd
000003c0: f8e9 1f3e 203f 95be a6e3 e03e e1a9 dd3d
000003d0: e021 c0be 2f41 efbe dbb4 3cbf 65b6 9b3e
000003e0: cbda 54bd c0d8 ea3e 7b18 e63e 7b76 ecbd
000003f0: 8cd6 6e3e 1ef3 9a3d a6e8 913d 4ffd 363e
0.5090514 -0.5394859 0.047343276 0.32231987 0.15297413 0.4316381 0.896766 0.37316993
-0.39677536 0.29544938 -0.107928954 0.64779276 0.12832169 0.06647089 -0.66543365 0.17680997
0.19091275 -0.26086012 1.1859107 -0.22498356 -0.5768116 -0.31856772 -0.5325423 0.4812448
0.24886927 -0.96812797 0.5880537 -0.066365 0.6555837 0.38472253 -1.7518301 1.3552737
-0.020830229 0.69619715 0.5219164 -1.5702039 -0.54420793 -0.18045062 0.16101427 0.07006584
0.1921897 0.2984088 0.27972972 0.6143157 0.5173861 0.3651763 0.5472204 0.89606404
-0.5015749 0.42826965 -0.0126897525 -0.21600841 0.76691246 0.15094769 1.1810062 0.3425227
1.3189207 -0.18777768 0.3310664 0.71058655 0.3178485 -0.45447153 0.57607645 -0.08593647
0.6832328 0.8652736 0.91284436 -0.8772677 -0.46902856 -0.8351386 -0.52503204 0.94694215
0.29314765 0.89376765 -0.0016897225 0.8631356 0.10731724 0.88259643 0.22724617 0.6225691
-0.04651159 0.2800266 0.09962023 0.30939436 -0.68312824 0.2657011 -0.47111595 0.33402133
0.38287383 0.0416518 0.1805382 0.8005763 0.4969617 0.3448641 0.039690048 -0.062256284
1.0678723 -0.4767713 0.28890327 -0.056260396 -0.49101496 -0.3359563 -0.46653777 -0.7669137
-0.2476014 -0.4684442 0.25257084 0.35892695 -0.15459529 0.14131548 0.517912 0.42506626
0.12411176 0.3254149 0.31829423 0.066314876 0.21543573 0.12853561 -0.07398028 0.54494464
-0.5288105 0.33017135 -0.18750654 0.23322019 0.50372034 0.10629678 0.78821695 0.43573976
0.107428685 0.5855472 0.15495186 0.2847388 -0.2088383 0.16966462 0.43450436 0.42333686
0.20202889 0.7273447 -0.25879222 0.087232344 -0.37426177 -0.14408968 -0.105970606 0.29126742
0.7712473 -0.8255977 0.028460704 -0.60976785 -0.53554904 0.27088338 -1.6025696 -0.43655393
1.3884324 0.25261158 1.0986584 -0.91473204 0.63622916 0.12401098 -0.099679716 0.5047017
0.34152552 0.20763682 -0.6960277 0.21056758 -0.35626927 0.57986933 -0.0012823915 0.17425162
0.033886574 -0.5097781 0.73809475 0.14475584 -0.011603172 0.32144308 0.071331285 0.095708236
-0.08045427 -0.35852808 0.0009248874 0.46544763 -0.3965764 0.10098038 -0.26349145 0.2901939
0.4511017 0.14898553 -0.50225127 0.031158283 -0.34137255 0.42046705 0.23803936 -0.009621456
-0.16234155 0.10365792 -0.5633512 -0.049577445 0.3832988 0.0014511105 0.087540306 -0.3328284
-0.2750082 -0.24818213 0.09212373 0.08430689 0.39027748 -0.07235727 0.21248128 0.19183615
0.2792023 -0.3488004 0.3461584 -0.15110472 0.71642464 -0.26231545 0.279963 0.51413924
-0.17402029 0.29473016 0.34611365 0.12666684 0.23083287 0.072431885 -0.30482307 -0.06463515
-0.16677542 -0.13147359 0.056626197 0.102097206 -0.1429737 0.031138375 0.18849614 -0.46761084
-0.09408095 -0.2633401 0.5167507 0.71302724 -0.39414063 -0.36232224 0.09986856 -0.072753206
0.15616596 -0.29149723 0.43923682 0.108234175 -0.37525845 -0.4672942 -0.73713464 0.30412593
-0.05196647 0.45868492 0.44940552 -0.11546036 0.2332403 0.07565902 0.07124452 0.17870067

lstm.weight_hh_l0 f4 [120, 30]
00000000: 168a c83e 001d 10bf 15bc 22bf 1c4b a83f
00000010: 131f 25be f7d1 a9be 15e0 01bf 6616 dabe
00000020: 0a79 de3e 6ce7 753f b66e 12bf b587 173d
00000030: d90a 3f3f bc09 863f a2dc 0a3f 3f8f 013f
00000040: d117 1ebf aee3 57be df35 bc3e 560e d0be
00000050: 57df 383f 29b8 203f 40c0 10bf 939e f5be
00000060: 0eb8 a1bd bf2f bfbe 9629 80be acf2 da3e
00000070: 5316 09be 2e10 133f f432 a0be 6c03 58be
00000080: 04a6 80be 2d7f 9a3e 8e11 273d d56f 25bf
00000090: eedd 51bf 5e04 393d 338a 1c3e 0bea 3bbe
000000a0: b419 133f cdbd 9e3f 6adf 2ebe 3e05 e53e
000000b0: eb3e a6bd 459b 323f 6501 063d 695a ea3d
000000c0: 50df 0e3f 3692 83be bcdf aa3c 48b5 3abf
000000d0: ebfa dabd a963 3ebe 8144 a2be 1e0b f5bd
000000e0: f9fb 06bf 6582 ae3e d6b2 b2be e934 ddbe
000000f0: f76b 38be e547 2cbf ca3a 5bbf 8b84 143f
00000100: 594d a5bf fff0 abbe 4a37 763e eaba b53e
00000110: 267d c33d 4639 5fbf e12e 933d d859 34be
00000120: 7237 223e 0947 cabe bb8f d53d 6ce8 92bd
00000130: 47fa c83e 31a0 bb3e 35bb 3a3d dd92 98be
00000140: 1769 903d a1b0 a53e cbbb 9e3f 9fad 683e
00000150: 6d5d 46bf ac9f 9abe d092 9bbe 54ea 573f
00000160: 48bf 46bf a4d9 e93e a785 e7bb 3fd3 17bf
00000170: 6540 3fbe 62ec 8dbf c94a 963f b6fb c7be
00000180: dc12 01bf 31e7 ac3f de9b 53bf 7ccf d33e
00000190: a6eb f23f d5f6 f4be dfd2 dcbd e0d3 c8bd
000001a0: 516f d6bc d359 2c3f cb01 e43c f7f8 38bf
000001b0: 6f7c d53e 5aec 033f 2f4a b43e 64ef b63e
000001c0: 4f1c 1b3f 9c25 c2be e4b0 f5be 4fcb 57be
000001d0: 5d41 00be 7e6f c33e 1f57 1cbf a8f1 693e
000001e0: c7f0 a8bd e1c1 d93c 59a5 c6be 5925 a93f
000001f0: 292b 15bb 403b cb3e dffc b53c 3bab 59bf
00000200: 4739 dd3c 1b00 763f eac5 1fbe c965 f4bb
00000210: b909 433e d126 7cbe 8b28 90be 8e2e dfbe
00000220: deb9 0bbf 0148 8dbd 37cf 23bf 2b39 c3be
00000230: 670a 2c3f de3c 003f 86a4 c3be bae4 98be
00000240: e879 2fbf d26b 7e3f 485a 84be 4b9e a23d
00000250: c395 673f f85a 083d e2af 5ebf 6fe6 383f
00000260: 1ed3 423d 47cd 7fbf c9df 23bf d1f5 483f
00000270: ed14 073e 4612 6bbe 1bb2 0f3f 760b 9abe
00000280: 7c5a f63c 0863 603f 69e1 bebe 58fa 173e
00000290: b323 09bf 64ff 2fbf 0b00 94be 9976 883e
000002a0: 9658 cabe 1bb3 7d3d 1643 99be 57ca 0dbf
000002b0: 9e0c 263e f414 b9bd 0043 293f aad8 e43e
000002c0: a593 5ebb 83cb 4bbe 7b53 0fbd d73c e2be
000002d0: 989f 233f 1ac8 e83e bd4d f93e 1053 4f3f
000002e0: c3d0 5e3e b517 4f3e 9db7 b4be e7e6 fabe
000002f0: fadf e5bd 0cde d9be ffdd e73d d0ea 913f
00000300: d395 bfbd 5362 833e 7d62 24bf 13d1 4f3f
00000310: 3b8f 39be 7b4f 893e e43b f43e 8ed8 053f
00000320: 3739 6c3d 1b91 3cbe 251f 663d 15e8 adbe
00000330: e1ab 593f 308d 9a3f ed4d 35be 2a5d 993d
00000340: 06d1 2bbf 1101 22be 9825 fd3d 8156 dd3e
00000350: 540c a73d 3166 843d 9bd7 4e3f f06c 093e
00000360: d82e b7be 95a1 3ebe 585f 0a3f fe9f 423f
00000370: 18b2 e23e ac3f 013f b654 93be b600 833f
00000380: 6f0d 27be 2dc0 833f e193 bd3e ad93 0abf
00000390: 26c5 683d 1ed1 083f 1af2 2bbe 70be 163f
000003a0: 3045 4c3d 19be 8bbe fd6f 7d3f 1c71 fe3d
000003b0: 8a47 c7bc f602 4c3f 297b ee3c a011 f8be
000003c0: fe95 50bf 3e8b e63b 72a6 73be 3d62 023e
000003d0: 0e11 28bf fa65 c93e 0e74 e2bc 9e08 73be
000003e0: a4df 293e 808e d43e 9835 13bd 5e90 f8be
000003f0: 3ca1 4b3f 812a 403e 39cf bcbe 00de c9bd
0.3916785 -0.5629425 -0.6356824 1.3147922 -0.16125135 -0.33168003 -0.5073255 -0.42595214
0.4345172 0.96056247 -0.5720018 0.036994655 0.7462593 1.0471721 0.5424291 0.506092
-0.6175509 -0.21082947 0.3675985 -0.40635937 0.7221579 0.62781006 -0.5654335 -0.47972545
-0.07896434 -0.37341115 -0.25031728 0.4276327 -0.13387422 0.57446563 -0.31288874 -0.21095055
-0.2512666 0.30175152 0.040788226 -0.6462377 -0.8197926 0.04517018 0.15287094 -0.18350999
0.57461095 1.2401673 -0.17077413 0.44730562 -0.081174694 0.6976817 0.032716174 0.114430256
0.558095 -0.25697488 0.020858638 -0.72932863 -0.1069239 -0.18592705 -0.3169289 -0.11965011
-0.5272823 0.34083858 -0.34902066 -0.4320443 -0.18009935 -0.672972 -0.8563658 0.58014745
-1.291423 -0.33582303 0.24044529 0.35494167 0.095453545 -0.8719677 0.07186676 -0.17612398
0.15841463 -0.3950732 0.10427805 -0.07173237 0.39253446 0.36645654 0.04558869 -0.29799548
0.07051294 0.3236132 1.240106 0.22722481 -0.77486306 -0.30199945 -0.30385447 0.8434193
-0.7763562 0.4567386 -0.007065493 -0.5930671 -0.18676908 -1.1087763 1.1741573 -0.39059228
-0.504194 1.3508054 -0.8265971 0.41369236 1.8978164 -0.47844568 -0.10782408 -0.09806037
-0.026176127 0.6732456 0.027832886 -0.7225489 0.41696498 0.5153252 0.35212848 0.35729516
0.6059007 -0.3791932 -0.4798652 -0.2107365 -0.12524934 0.38171 -0.61070436 0.22846091
-0.0824905 0.026581706 -0.38798025 1.3214523 -0.002276132 0.39693642 0.022215305 -0.850269
0.027004851 0.9609391 -0.15602842 -0.007458423 0.19046678 -0.24624182 -0.28155932 -0.43590206
-0.54580486 -0.06898499 -0.6398806 -0.38129553 0.6720337 0.50092876 -0.3821146 -0.29862005
-0.6854539 0.9938327 -0.2585013 0.07940348 0.90462893 0.03328988 -0.86987126 0.72226614
0.04756462 -0.99922603 -0.64013344 0.78500086 0.13191576 -0.2295619 0.5613114 -0.3008687
0.030072443 0.8765111 -0.3728135 0.14841592 -0.535701 -0.6874907 -0.28906283 0.26652983
-0.3952071 0.061938386 -0.29933995 -0.5538687 0.1621575 -0.090371996 0.6611786 0.44696552
-0.0033962515 -0.19901852 -0.034991723 -0.44187042 0.63915396 0.45465165 0.48692122 0.8098612
0.21759324 0.20223887 -0.35296336 -0.4900429 -0.11224361 -0.4255222 0.11321639 1.1399784
-0.093547486 0.25660953 -0.6421278 0.81178397 -0.18121044 0.2681845 0.47701943 0.5228356
0.05767175 -0.18414728 0.056182045 -0.33966127 0.8502789 1.2074337 -0.17705508 0.07488473
-0.6711582 -0.1582072 0.12360686 0.4323006 0.08156648 0.06464804 0.8079774 0.13420463
-0.35777926 -0.18616326 0.54051733 0.7602538 0.442765 0.5048778 -0.28775567 1.0234592
-0.16313718 1.0293022 0.37026885 -0.54131585 0.05682864 0.5344409 -0.16791573 0.58884335
0.04987067 -0.2729347 0.98999006 0.12423918 -0.024326105 0.7969202 0.029111462 -0.48450947
-0.8147887 0.007035642 -0.23793963 0.12732787 -0.65651023 0.39335614 -0.02764323 -0.23733756
0.16589218 0.4151497 -0.035939783 -0.48547643 0.795429 0.18766214 -0.36876848 -0.09856796

lstm.bias_ih_l0 f4 [120]
00000000: 12db 673e 5d15 8b3e 7941 08be 62fa 083d
00000010: 8145 913e f07d 42be ea8e b0be e9b1 233e
00000020: 3c08 453e fa0f 0c3f d6d9 5b3e 64c9 db3d
00000030: ab73 1e3f 1680 693d b3f1 74be fc66 66bc
00000040: 5425 203c 8131 2f3e 90aa 143e b3b0 173e
00000050: fb62 52be 2ea0 213f 06f5 20bd adad 9a3c
00000060: 201a 27bd d97a d1be 91cf a33e 066e 223e
00000070: dcf8 963b 7757 f73c 689f 59bc 7db6 70bd
00000080: c83d a5bd 6f8e 20be 2e29 aa3d 8312 c03e
00000090: c07a 9fbe 5518 f9be b1a8 aa3d 9b29 a83d
000000a0: 4f34 4bbe 9a9c e73d f740 073e 1ab9 e3bd
000000b0: c1c3 673d 8d09 1a3d 80e6 003e cdee 1ebd
000000c0: bc9b 963e ae9d f83d 53d0 883d dd91 e3bd
000000d0: 13cd 903e a7d9 963d ed9e 64bd 2f85 a93d
000000e0: 3860 673e 1339 c63a efad 423d 9106 0dbe
000000f0: 5b4b 5abe 5621 833e 38df 52bc a035 7dbc
00000100: 28a0 17be 01f3 02be c629 9d3e 437c 133d
00000110: 1a08 8b3b 7478 0b3e 4a35 b0bb 8955 f2bc
00000120: 1701 173e 7184 54be dfa5 4ebd a84e 38be
00000130: df09 a33c 96ee 423e cc41 51be adfc 93be
00000140: 7210 dfbd 1619 f9bd cf9b 39be d48f 99bd
00000150: b15c b33d 2cd6 483e 74a3 08be 7509 1e3e
00000160: ba17 913d 5283 11bd 8dc7 d53e be0f 583e
00000170: 2fef f3bd 2804 023f 915b 2f3f 13fd 8e3e
00000180: 16a1 78be 9cae e23e 2945 573e 5aea 753f
00000190: a585 833e 05c5 2d3f 41ce f63e e722 ab3e
000001a0: b947 8d3d 40f7 853c 04be 7c3c 8983 c33d
000001b0: c31e 973e aaec a23e 2570 b6bc ff7f 203f
000001c0: 3142 2f3e 0d50 993d 5929 9b3e 8466 b83e
000001d0: ad35 173f bf6e 423e 0262 3a3c 3a87 81be
0.22642162 0.27164736 -0.13306226 0.03344191 0.2837334 -0.18993354 -0.34484035 0.15985836
0.19241422 0.5471188 0.21469817 0.107317716 0.61895245 0.057006918 -0.23920326 -0.014062639
0.009774525 0.17108728 0.1451819 0.14813499 -0.2054557 0.6313504 -0.039296173 0.018881643
-0.0407964 -0.40914038 0.31994298 0.15862283 0.004607303 0.030193074 -0.013282634 -0.058767784
-0.080684245 -0.15679334 0.08308636 0.37514123 -0.31148338 -0.48651376 0.083329566 0.082110606
-0.19844173 0.11309166 0.13208376 -0.1111929 0.05658317 0.037606765 0.12587929 -0.038801957
0.2941569 0.1213945 0.0668036 -0.111118056 0.2828146 0.07365733 -0.055815626 0.08277356
0.22595298 0.0015123211 0.047529157 -0.13772036 -0.21317808 0.2561137 -0.012870602 -0.01545468
-0.14807189 -0.12788011 0.30695933 0.036007177 0.004242909 0.13620168 -0.0053774463 -0.029581802
0.1474651 -0.20753647 -0.050451156 -0.17998755 0.019902168 0.19036326 -0.20435256 -0.28903714
-0.108918086 -0.12162988 -0.18125843 -0.07498136 0.08757914 0.1961295 -0.13343602 0.15433295
0.070846036 -0.035525627 0.41753808 0.21099755 -0.11910855 0.5078759 0.68499094 0.27927455
-0.242802 0.4427384 0.21022476 0.9606072 0.256879 0.6787875 0.48204234 0.33425066
0.06898446 0.01635325 0.015426163 0.09546573 0.29515657 0.31821185 -0.022270272 0.62695307
0.17115094 0.074859716 0.30304983 0.36015713 0.5906628 0.18987559 0.011375906 -0.25298482

lstm.bias_hh_l0 f4 [120]
00000000: 2d04 a23d e749 ad3e 5641 7fbd 0585 213e
00000010: 7509 c43e 55f2 6dbe 321e a9be ee64 c13e
00000020: 3424 793e 51b0 093f 35d4 863e c1ae 8d3e
00000030: 5e9b 1e3f 9154 463e b7f1 503d c70e 1bbd
00000040: 0b16 e0bb 1eb1 cabd b4ad 46bd fc3e 603e
00000050: abe1 13be 0b0f 1a3f fcfa 09bc 9904 853d
00000060: f2d6 5b3b 17cf 87be 678b aa3e ab9b 85bc
00000070: 914b 60bd df23 1dbe b272 943d c5d8 81be
00000080: 11fd 243d 67a1 6ebd a977 4e3e 5a94 963e
00000090: a2c7 afbe 4e1f f9be 89ed 1e3d 62a4 303e
000000a0: ff8f 85be 94e1 c93d e8c2 513e 1af0 48bd
000000b0: 6d31 003e 4027 5bbe c3b1 1dbe f767 a13d
000000c0: bae8 4c3e e258 bb3d fc64 cd3d 7cb0 533d
000000d0: 167a c83e 5a1f 473d af55 453e a7bc 1a3e
000000e0: 857e b83e abad 083e 3dfc 4cbe 36fa 0e3e
000000f0: 0c32 c7bc 3603 8fbd d7b1 603d d1a5 983d
00000100: 49e5 6abe 30a6 95bb e459 793e 06b0 d83c
00000110: bab8 51be 8d48 ddbd 1328 4cbe a680 19be
00000120: 0ce1 4d3e 978e 3bbe 83f2 05bd ae8d abbe
00000130: 91ef f2bd 285d 3f3e 045b 07be c44f bbbd
00000140: 6a6c c1bc 7384 b1bd f28d 063d 0765 aebd
00000150: a164 e13d 992b df3d d6e4 d53d bea0 db3d
00000160: ae24 633a cdf2 f73b 7eba 9a3e 56f3 82bb
00000170: 91c3 5cbd 3d2f 1c3f 239a 2c3f 7e31 4d3e
00000180: 9663 57be a1d3 4f3e 154e ab3e a216 2f3f
00000190: 15b9 983e 65ce c33e c8cf 423f 5e4b 5d3d
000001a0: 6084 373e bcff 1ebd d26c 863d 85e5 6a3d
000001b0: 19f4 70bd 2ea2 7d3e be92 b13c 0756 f33e
000001c0: c776 9e3e d8ae db3d 82fe f43d 0e65 b93e
000001d0: fb43 f83e f145 253e 1174 8abe c8eb 26be
0.07910953 0.33845446 -0.06231817 0.15773399 0.38288465 -0.23236974 -0.3303085 0.37772316
0.24330217 0.5378466 0.26333776 0.2767239 0.6195582 0.19368197 0.051011767 -0.03785589
-0.006838565 -0.09897064 -0.0485055 0.21899027 -0.14441554 0.60179204 -0.008421656 0.064950176
0.0033544865 -0.26525185 0.3330948 -0.01630958 -0.054759566 -0.15345715 0.07248439 -0.25360695
0.040280405 -0.058259394 0.20162834 0.29410058 -0.34331995 -0.48656696 0.03880075 0.17250207
-0.26086423 0.09857479 0.20484507 -0.049057104 0.12518854 -0.21401691 -0.15399842 0.07881158
0.20010653 0.091478124 0.10029027 0.05168198 0.39155644 0.048613884 0.19270967 0.15111028
0.36034027 0.13347499 -0.20018096 0.13962635 -0.024315856 -0.06983034 0.0548571 0.07453502
-0.22939028 -0.0045669302 0.24350697 0.026451122 -0.20480624 -0.108048536 -0.19937162 -0.14990482
0.2010538 -0.18316112 -0.03270198 -0.3350653 -0.118621 0.1868788 -0.13218313 -0.091460735
-0.023611266 -0.08667841 0.032850213 -0.08515363 0.110055216 0.108969875 0.104440376 0.107240185
0.00086648285 0.007566786 0.30220407 -0.003996293 -0.053897444 0.6100958 0.67422694 0.20038411
-0.21034083 0.20295574 0.3345801 0.6839391 0.29828706 0.38243404 0.760983 0.054026954
0.17921591 -0.038818106 0.065637246 0.057347793 -0.05882654 0.24768898 0.021676417 0.4752657
0.30949995 0.10726708 0.11962606 0.3620991 0.48489365 0.16139962 -0.27041677 -0.16300881

lstm.weight_ih_l1 f4 [120, 30]
00000000: 2474 0dbf a468 703d ab82 54bd 36bd 1c3f
00000010: 8833 01bf 96c2 9c3f c7ef 113e a03b 95bf
00000020: 7bad 183f cc41 4ebd b8c0 40bf 0e4e 323f
00000030: 218e 62be e4c3 303e b260 b43d 4ce8 8bbf
00000040: bee3 32bf dbfa 4c3e b9fc 50bf 065c 52be
00000050: cbc3 c9bd 5e31 9dbe 42d4 ec3d 62fe 65bd
00000060: 6597 a8bd 5e45 a53c bedf 643e bb51 c23d
00000070: 2771 9a3e e0a9 d9be d62e 0a3f 7625 323f
00000080: 6d67 d3be 4d2c 2d3f 3300 a73f 1ee8 56bf
00000090: 57a9 1f3e 2691 ae3e 2ace 7fbf 54ae 8ebe
000000a0: d670 1a3f c199 fcbd 6424 4fbf 9209 2fbf
000000b0: bd73 0a3f 24b6 603e 2fa1 bdbe 0a2a e03d
000000c0: a989 123e fc85 5b3f aaa5 5dbf e7dc f43e
000000d0: b7d9 ecbe 3283 b2be d004 e93e 625d ad3e
000000e0: e923 0fbf dbd4 c1be fb3e 13bf f5f2 acbf
000000f0: 53cc 81be 426d 553e 1809 63bf 1600 433f
00000100: 6b22 82be 3825 473f a011 83bd 3fc2 81bf
00000110: e68d d43e 964b 953e 7565 f7bd fe83 a03e
00000120: 0102 6ebe 8a46 243f 3f46 c33e 089e e1be
00000130: 3457 c8be dffc 8a3f 7807 e6bd 1469 19bf
00000140: d497 a4be 3a3e 6fbf a657 483e e991 b63d
00000150: 52a9 97be 3da4 32bf b653 5abf ada1 653f
00000160: ca62 bbbe 540e 33bf 1add 523e 0784 dd3c
00000170: 1ad1 33be 4df6 013f 21dd 4bbf 461a 0fbd
00000180: 48fe 47be aed8 d13d 07a4 18bf c970 903d
00000190: 883b 683e 7125 d93e ccc3 1cbf 851e a4be
000001a0: e828 ff3e 72ce a0bd 1b0e 2fbf 082d 663f
000001b0: d11c d23d db59 11bf b196 fd3e 6e40 3fbf
000001c0: fdd2 f93e ae4c db3e 576c 9ebe 39b7 383f
000001d0: 2444 3dbf d617 0a3e 5896 67bf dfa8 01bd
000001e0: 22c0 243d f894 0bbf 512f 80bf 5f4d d43e
000001f0: 3913 99bf d6b7 aebe eead d93e 7df2 04bf
00000200: 81d2 c43e 260c 643e 91d4 14bf 8621 eebc
00000210: cd93 8b3e 0b87 c5bc 28f4 a6be 4891 a8be
00000220: c842 5ebe 2947 8c3f a54e 80be 16fd dfbf
00000230: b446 9a3f 0087 093e aa14 263f 6036 14bf
00000240: 33a2 23bf f91c a3bf 8eae 4bbf 81e8 8b3e
00000250: fcfd f73e 3109 853f e5f9 483e fd80 0e3f
00000260: 6064 48bd bc82 04be 3395 3abe c00d 62bf
00000270: 02dd 01be c58e fe3e a53c b9bd 7c48 1fbf
00000280: d39a 653d 16c9 413e ce9a 1b3e 7121 c0be
00000290: 9ca1 c73e f3d4 543f 5d89 65bd 469e 6c3d
000002a0: af48 5bbd ca0b 33bb af4a 813e 7f8d 04bf
000002b0: b098 d8be bc44 e7be c0d1 0ebe c79c 37bf
000002c0: d545 90be 2402 e1be d079 843e 6009 25be
000002d0: 719a 57be 38d2 20be b581 62bf 9929 74be
000002e0: 2040 68bf baa9 6abe 50c1 593f df8d edbe
000002f0: 91a8 7a3d 46a4 78bf af0e e53e 7bba 3fbf
00000300: d3b6 86be 5fe5 de3e 5683 16bf a9e3 97be
00000310: a6cf 2abe be66 573f c0b5 55bf 99d7 47bf
00000320: b452 a6bc ed3c cfbe 51dc 673d 51bb a8bd
00000330: 3127 acbe 2b9e 02bf 97d9 34bf f586 223f
00000340: 744d f73e 41c4 f83d b34c e0be deab 383e
00000350: d949 03bd 3258 15be cfde 82bf 8f58 703e
00000360: 09ce aabe d019 e0be e5f4 acbe fb5e fabe
00000370: 1a26 96bd a5a9 e73e 9486 423f 6e4e dfbd
00000380: e67d 61bf e799 463e bad7 033f fecd 8b3f
00000390: c790 253d 3067 c8be 27f7 27bf 4793 223e
000003a0: d441 763f 575f 66bf 6e69 d23e 19cc 2dbe
000003b0: 5f92 0a3e 4d19 f33e 76e5 60bf a3e5 4cbc
000003c0: f347 e53d 8bb5 7fbe ea25 44be 2cb0 933e
000003d0: 421a 833f 620a 8fbe e816 d0be abdd 5fbd
000003e0: 6975 adbb c406 953f fe68 0cbe 4850 7b3e
000003f0: 2547 903d d2b2 c8be f927 913f d106 373f
-0.5525534 0.058693543 -0.051882427 0.6122621 -0.50469255 1.2246883 0.14251624 -1.1658821
0.5963971 -0.050355718 -0.75294065 0.6965035 -0.2212453 0.17262226 0.08807506 -1.0930266
-0.69878757 0.20017569 -0.81635624 -0.20542917 -0.09851798 -0.30701727 0.115639225 -0.0561508
-0.08232001 0.020174678 0.22350976 0.09488245 0.30164453 -0.42512417 0.53977716 0.6958841
-0.41289845 0.6764572 1.3046936 -0.8394793 0.15591942 0.34095114 -0.99923956 -0.27867377
0.60328424 -0.12334014 -0.809149 -0.6837398 0.5408285 0.21944481 -0.37037036 0.10945518
0.14310326 0.8575132 -0.8658091 0.47824785 -0.46259853 -0.3486572 0.45511484 0.33860308
-0.5591417 -0.37857708 -0.57517976 -1.3511645 -0.253512 0.2084246 -0.8868575 0.76172006
-0.25416884 0.77791166 -0.06399846 -1.0137404 0.4151451 0.2915923 -0.12079898 0.31350702
-0.23242952 0.64170134 0.3813953 -0.4406588 -0.3912903 1.085842 -0.11231893 -0.5992596
-0.32147086 -0.93454325 0.19564685 0.08914549 -0.2962137 -0.6978186 -0.8528398 0.8969982
-0.36598808 -0.6994374 0.20592156 0.027040495 -0.17560235 0.5076645 -0.7963429 -0.034937166
-0.19530594 0.102464065 -0.59625286 0.07052762 0.2267896 0.42411378 -0.6123626 -0.32054535
0.49835896 -0.07851876 -0.683809 0.8991246 0.102594025 -0.56777734 0.4952903 -0.74707687
0.48793784 0.4283194 -0.30942032 0.72154576 -0.739321 0.13485655 -0.9046378 -0.03165519
0.040222295 -0.54524183 -1.001444 0.4146528 -1.1958991 -0.3412463 0.4251551 -0.5193251
0.38441852 0.2227026 -0.5813685 -0.02906872 0.272612 -0.024112245 -0.3260815 -0.3292334
-0.21705163 1.0959216 -0.2506 -1.7499111 1.2052827 0.13430405 0.6487528 -0.5789547
-0.6391937 -1.2743217 -0.79563224 0.27325824 0.48435962 1.039343 0.19626577 0.5566557
-0.04892385 -0.12940496 -0.18220977 -0.8830223 -0.12681964 0.497183 -0.0904477 -0.6221998
0.056055855 0.18924364 0.15195772 -0.37525514 0.38990486 0.83137435 -0.056039203 0.05776813
-0.053536113 -0.002732026 0.25252292 -0.51778406 -0.4230399 -0.45169628 -0.13947201 -0.717236
-0.28178278 -0.43946946 0.25874186 -0.16116858 -0.21055008 -0.15705192 -0.8847917 -0.23843993
-0.90722847 -0.22916308 0.85060596 -0.46397302 0.061195914 -0.9712566 0.44737765 -0.7489392
-0.2631136 0.4353437 -0.5879415 -0.29665878 -0.16680774 0.8414115 -0.83480453 -0.7806335
-0.020303108 -0.4047617 0.056606594 -0.08238853 -0.3362365 -0.51022595 -0.70644516 0.6348718
0.4830128 0.121468075 -0.43808517 0.18034312 -0.03205285 -0.14584425 -1.0224246 0.23471282
-0.33360317 -0.43769693 -0.3378059 -0.4890059 -0.07331486 0.45246616 0.759866 -0.10903631
-0.8808273 0.19394647 0.5150105 1.0922239 0.040421274 -0.39141226 -0.656115 0.15876494
0.96194196 -0.8998923 0.4109606 -0.16972388 0.13532399 0.4748024 -0.8785013 -0.012505922
0.11195364 -0.24971597 -0.19155088 0.28845346 1.0242388 -0.2793761 -0.40642476 -0.05465476
-0.0052935374 1.164269 -0.13711926 0.24542344 0.0704482 -0.3919893 1.1340324 0.71494776

lstm.weight_hh_l1 f4 [120, 30]
00000000: df7e eb3d c001 3c3f cafc c5be 0609 fa3e
00000010: 3b6a ff3e 806f 88be cfea 9cbe e7be ca3d
00000020: f1fb a03d fd93 43bf 03bb 78bb 144b 1b3e
00000030: 2e1f bbbd 7246 96bf ac51 52bd 7c56 0d3f
00000040: f3a8 25bf f2a2 21be 7384 eabc a731 28bf
00000050: 37c9 1bbf 3d1d 1c3e 1271 ef3e 9d6a b3bd
00000060: 06dd 113e 9e9f 06bf 5503 02bf 2303 f7be
00000070: fa37 1cbe 4409 743d b24b e4bc bf54 b3bd
00000080: 075e bbbe 32af 203d c902 003e adac 193c
00000090: 54f2 1a3f 8f6b 1dbf c552 2a3d 3693 cebe
000000a0: 4d5f 8abd 4374 b23e dcb6 aebc 5029 c7be
000000b0: 810b 2fbd 433f 0c3f 128c 8bbe 5d86 ef3e
000000c0: 7bf1 7fbe 6a35 a23d 7292 64bf 52a1 98bc
000000d0: 0da5 5a3f b064 903f d8ee 883e 9636 093f
000000e0: 2b66 fabe ef49 54be 1a7a 4dbf 089f 77bd
000000f0: 482b a4be dc79 1abe 1bd3 87be fa3e 773d
00000100: a0e7 0040 7204 df3e 79bc 9c3e ef67 6c3b
00000110: 4046 bf3e a0f2 bb3e 22c2 b33e 1b2c 21bf
00000120: 58ef 87bf a09f b8bc 228d 3f3c fb16 7c3e
00000130: c220 8f3f 4622 12bf f55d eabe 37a4 b53d
00000140: 0ecf a8bf e6ab 44bf ce93 d63e 36be 5ebe
00000150: 2ff4 4bbf 3b58 89bf 32b7 e23e 4656 f8be
00000160: a0a7 61be b63c b23e 0233 97be 8a64 2fbe
00000170: a853 003f 72b3 abbb e677 ff3c c7a9 143f
00000180: 6119 a7bd 210b 2ebf 18c3 11bf 4716 093f
00000190: 7823 1b3f 50bf 5f3f 4345 64bf 3128 cfbe
000001a0: d659 33bf 68dd 83bd 68c9 873f 185a 2ebe
000001b0: a496 b63d a6eb 3f3f 77f0 90bd 893c 3d3d
000001c0: f307 ed3e 2183 06bf e756 9e3e 5f7e 03bf
000001d0: c6af 0c3f 7d00 fa3e 0305 e6be 754c da3e
000001e0: c8ef fdbe 7f30 e03e 4138 7abb a3b7 193d
000001f0: d9fa 88bd c948 dd3e 9738 683f c1aa ccbe
00000200: fb6a a03e 4470 38be 30b9 323f f25a 0bbf
00000210: 6b0c 2e3e c10d 023f 46c4 3abe 3e82 d7be
00000220: f70a 72bf 2aa6 123e c576 a4bd 37b2 1fbf
00000230: 35c1 b2be 3612 97be fc49 b43d 6121 9f3e
00000240: 3197 3a3f b6ee e5be c3f9 b43d bd9b 7dbe
00000250: f919 313e e056 d1bb af35 c0bd 0c50 ed3d
00000260: 0c59 383e d675 03bf ddfe 2ebf 48cb d3be
00000270: 2480 b43e 9185 b13d ce0f 113f f173 433f
00000280: 6381 a2be 1f49 a03e 1be1 6a3e e5b5 8d3e
00000290: a9b6 a93d 74bd 84be 9194 183f 41ce 1cbf
000002a0: 1505 053e 01a3 613f 379d 983e 0f28 9a3e
000002b0: f974 293f e328 1c3f 1687 83be 0a49 adbe
000002c0: a6d6 b4bd 73a0 53be c75d 093e aff8 97bd
000002d0: 7c80 2ebf d596 8a3f 1796 d5be ffe9 57bd
000002e0: c685 553d 3088 173e 3314 1ebc e12a f9bd
000002f0: d514 023f e4dd d4be 39bd d5be 72d0 87be
00000300: 3e95 82bf 14ef 97bf d1d5 38be 8d49 5a3f
00000310: da71 133f de3c 06be 237d d6be b565 4dbc
00000320: e973 293e a10b 97be 7f2e 943e f04a 22bf
00000330: 1b19 e8be dfce 86be 3967 523f e7a5 e7be
00000340: 6365 50bf 5330 4a3f 50bf e73e c8c8 573e
00000350: 2834 233f 4623 203e 15ae b7be 5a46 cbba
00000360: 12ab 913e 537d 26bf 375f 403e 58bf ff3e
00000370: b0ac 493e a363 b33e d856 c3be 5561 d6be
00000380: 8b06 0e3e 743d cbbe 67c0 ef3d 3371 a6be
00000390: 7b5c b23f c8c4 803f 81d4 f53e ff0f f0be
000003a0: d909 4e3d 5e0e 383e d20b e9be 0457 d0be
000003b0: dc3d c63e d284 0b3f afa4 4d3e 1746 4d3e
000003c0: ac3c cdbe fd26 13be e6f4 b83e f79f 573e
000003d0: 7018 163f 7dc3 b3be 2c18 d23d 9a4e 1f3f
000003e0: cb71 99bd 30a8 e83e a7dc 783f c1b3 b33e
000003f0: 750c 24be e410 503d aafb 9e3e 04cf 173f
0.11498808 0.7344017 -0.38669425 0.4883501 0.49885735 -0.26647568 -0.30647895 0.09899693
0.07860554 -0.7639769 -0.0037953265 0.15165359 -0.091368064 -1.1740248 -0.05134742 0.5521009
-0.6471092 -0.15784815 -0.02862761 -0.65700763 -0.60853904 0.15245529 0.46765953 -0.08760569
0.1424447 -0.52587306 -0.50786334 -0.4824458 -0.15255728 0.05957915 -0.027868126 -0.087563984
-0.36595175 0.03922958 0.12501062 0.009379548 0.60526013 -0.61492246 0.04158284 -0.40346688
-0.067564584 0.34854326 -0.021327429 -0.38898706 -0.04273558 0.5478403 -0.27255303 0.467822
-0.24994461 0.07920344 -0.8928596 -0.018631611 0.854081 1.1280727 0.26744723 0.53598917
-0.48906073 -0.20731328 -0.8026444 -0.0604544 -0.3206427 -0.15085548 -0.26528248 0.060362794
2.0141373 0.4355808 0.30612543 0.0036072691 0.37358284 0.36708546 0.3510905 -0.62957925
-1.0619917 -0.022537053 0.0116913635 0.24618141 1.1181872 -0.5708355 -0.4577481 0.08869212
-1.3188188 -0.76824796 0.4190964 -0.21752247 -0.7966947 -1.0730051 0.44280392 -0.4850332
-0.220366 0.34811944 -0.29531103 -0.17128196 0.5012765 -0.0052398974 0.031185102 0.5807156
-0.081591375 -0.6798573 -0.56938314 0.5354962 0.60600996 0.87401295 -0.89168185 -0.4046035
-0.70058954 -0.06438714 1.0608339 -0.17026556 0.08915451 0.74968946 -0.07077115 0.04620031
0.46295127 -0.52543837 0.30925676 -0.513647 0.5495571 0.48828498 -0.449257 0.42636457
-0.49597 0.43787 -0.0038180503 0.037528645 -0.066884704 0.43219593 0.9071135 -0.39974025
0.3133162 -0.18011576 0.69813824 -0.54435647 0.16996925 0.50802237 -0.18238935 -0.42091554
-0.9454798 0.14321199 -0.08030466 -0.6238131 -0.3491303 -0.2950608 0.08803174 0.31080154
0.7288695 -0.44908684 0.08836701 -0.2476644 0.17295064 -0.00638853 -0.09385239 0.11587533
0.18002719 -0.5135168 -0.6835764 -0.4136603 0.35254014 0.08668054 0.5666474 0.7634879
-0.3173934 0.31305787 0.22937433 0.27677837 0.08286793 -0.2592579 0.59601694 -0.6125222
0.1299022 0.8813935 0.29807445 0.30108687 0.6619411 0.6099989 -0.25689 -0.33844787
-0.088300034 -0.20666675 0.1341468 -0.074204795 -0.681648 1.082728 -0.41716072 -0.05271339
0.05212953 0.14798045 -0.009648371 -0.121663816 0.5081304 -0.4157554 -0.41745928 -0.2652622
-1.0201795 -1.1869836 -0.18050314 0.8526848 0.575956 -0.13109156 -0.41892347 -0.012536456
0.16548122 -0.2950106 0.28941724 -0.63395596 -0.45331654 -0.26329705 0.82188755 -0.4524376
-0.81404704 0.78979987 0.45263147 0.21072686 0.6375146 0.15638456 -0.35875002 -0.0015508637
0.2845083 -0.6503498 0.18786322 0.4995067 0.19694781 0.35036954 -0.38152194 -0.41871133
0.13869683 -0.39695323 0.1170662 -0.3250824 1.3934473 1.0060053 0.4801369 -0.46887204
0.05030236 0.1797423 -0.4551683 -0.40691388 0.3871907 0.5449954 0.20082353 0.20046268
-0.4008535 -0.14370342 0.36124343 0.21057115 0.5863104 -0.35110083 0.10258517 0.6222931
-0.074924074 0.45440817 0.9721169 0.3509808 -0.16020377 0.05079736 0.3105138 0.59300256

lstm.bias_ih_l1 f4 [120]
00000000: a9d3 293e 955a a03e 7d93 423f da37 8e3e
00000010: 2025 a83e c39f abbd 3f19 d43e a3f0 603e
00000020: 22fe d73e 0dfd 9ebc 7618 5d3e 2267 393e
00000030: 3dc3 a83c 4f53 97bb 8e75 243e bb17 fb3c
00000040: b395 da3e 2fc7 563d 7a22 243e 3fca b13d
00000050: 3075 873b 130e ef3c 044d 50bd f4aa f43e
00000060: 739d 1cbe 6164 0a3d 4b60 2e3e add7 973e
00000070: aea3 fd3d ba68 f3bd 9b08 133e 3dec d9bd
00000080: d265 87bd 2d5e 963d 0a50 2d3e c8a0 d3be
00000090: cf4b f03d e109 ddbb 0a44 b2bd 632d 583d
000000a0: 0a67 ff3d b0b0 f4bd 6e76 bc3e bd5d be3d
000000b0: 69da 11be a160 a13c da06 223d 8baa 953d
000000c0: b37d b13c 764a 6ebd 7cc4 96bd 3ba4 dabe
000000d0: e2af df3e 7576 92bd d0b6 073e b696 c13c
000000e0: 6ce8 a8bd 5d5c 96bd 53f7 97be ef24 ebbd
000000f0: e826 86bd 1350 153e 3572 32bd 91a6 a73d
00000100: 6582 fabc d8b6 b0bd 8fe7 38be 2a92 a63d
00000110: 764b bb3d 706c e83d aacc 053d c13f 6a3d
00000120: ea59 89bd ee46 01be 8d0d 8ebd 0eb2 053e
00000130: 12c4 19be 06fb 08bd c649 bb3c 10f6 953d
00000140: b3d2 3e3d 30a6 8e3e 7c28 b33d e17f 343d
00000150: 327c f03b 0bcf 793c 377c 8a3d b981 f93d
00000160: 0b4c 00be 7212 e33d 0ce8 e33d fd92 403f
00000170: aab8 3b3f 9955 663e 2eed 6b3f 3f47 443e
00000180: bec7 d03e f5e1 e2bd bdbf 103f 65ee ab3e
00000190: 4f6b e03e 5b58 393e ddb5 003e 1e4c f83d
000001a0: 1b71 c53c 38fc 7f3e ff92 053f 7a4c f93e
000001b0: 6fbc be3e 7823 963e 9be4 e1bd 222b da3e
000001c0: cf21 893e 0b30 423f 795f a53e dc80 dfbc
000001d0: a6db 1b3e c440 f33e f4e1 c03e 79a9 6b3e
0.16584648 0.3131911 0.760063 0.27776986 0.32840824 -0.083800815 0.4142551 0.21966796
0.42186075 -0.019407773 0.21591362 0.18105748 0.02060091 -0.0046180855 0.16060469 0.030650964
0.42692336 0.05243605 0.16028777 0.086811535 0.004133843 0.029181516 -0.050854698 0.47786677
-0.15294437 0.033787135 0.1702892 0.29656735 0.12384735 -0.118852094 0.14358751 -0.10640762
-0.066112176 0.07342181 0.16925064 -0.41333604 0.11733209 -0.0067455624 -0.08704384 0.05277766
0.12470825 -0.11947763 0.36809105 0.09295223 -0.14243473 0.019699397 0.039557315 0.07307919
0.021666383 -0.05817648 -0.07361695 -0.42703423 0.43688875 -0.071515 0.13253331 0.023631435
-0.08247456 -0.07341836 -0.2968088 -0.11481654 -0.065503895 0.14581327 -0.043565948 0.08186067
-0.030579755 -0.08628625 -0.18057083 0.08133347 0.091452524 0.11348808 0.032665886 0.057189707
-0.06706603 -0.12624714 -0.06936178 0.13056204 -0.15016201 -0.03344252 0.022862326 0.07322323
0.046587657 0.27861166 0.08747956 0.044067267 0.007339024 0.015247117 0.06761973 0.12182946
-0.12529008 0.110875025 0.11128244 0.75224286 0.7332865 0.2249359 0.9215878 0.19167803
0.4077739 -0.11078254 0.5654257 0.33580318 0.4383187 0.18100111 0.12569375 0.12123893
0.024101784 0.24998558 0.52177423 0.4869116 0.37253138 0.29323936 -0.11029931 0.42611033
0.26783606 0.7585456 0.32299402 -0.027283125 0.15220508 0.4751035 0.3767239 0.23013867

lstm.bias_hh_l1 f4 [120]
00000000: be46 e53c 0fdb 7b3e 325f 1d3f a17f 9a3e
00000010: 5e47 b63e 56ed b2bd ea43 d33e c32e 773d
00000020: 7777 ac3e 4133 fd3d 136c c03e 9d67 913e
00000030: 87c8 c4bb 0b7b f63d cda6 8d3e 279b 023e
00000040: 025a cf3e 2a31 9d3d 31d7 fd3d 8a86 bc3d
00000050: f461 35be bbb4 843d 3ab5 5abe 8726 703e
00000060: af97 2f3d cceb 823d 6f62 653e 5056 c63d
00000070: e934 bb3e dc18 c73c 718d 733e f2b2 63bc
00000080: aaa0 15be 3252 fdbc 9589 c8bc 493e 94be
00000090: 5f18 b1bd 0d1b a0bd ff7c 08be 5fb3 7f3e
000000a0: c78e 5b3e 9123 dd3c 3817 cd3e 077e edbd
000000b0: 551d 6e3d 2729 80be bb3d 54be 3193 1e3e
000000c0: 1e64 edbd 9e37 aabc 7983 183e 14eb 87be
000000d0: 9066 913e 9461 553e e656 2ebd 4fcb 0abd
000000e0: df72 7e3d a973 6abe f893 d7be ea09 33bc
000000f0: 82ae 1ebd 5ef2 243d eb3e d5bd 8ecd 0a3d
00000100: a126 92bc b1a6 c7bd e7d7 c1bc f5d7 c1bd
00000110: b4e7 113e 5918 323e 7e05 67bd 4d24 d03d
00000120: 1c34 57be 8a58 563d b7e0 10bb 5b24 463e
00000130: eb11 67bd a1d9 403e 0b12 293b d89f 013e
00000140: 0fe4 733d 502e 98bc 866d 2b3d 2792 313e
00000150: 2676 2cbd d18e 32be 5fb4 dd3d 6edc 3cbe
00000160: 9834 093b 851e 073e e5f1 d73e 1053 1c3f
00000170: cd6f 753f 75c6 0f3e 27da 753f 25ae a13e
00000180: aa5b 133f 5e59 953d 2461 fa3e f58a 723e
00000190: bf47 d43e 23b1 463e da03 563d 063d d53d
000001a0: 6d81 923e 6c98 663e ae32 ba3e 4fcb c63e
000001b0: 19e3 b23e 355d 9a3e 3fe7 65be 1b11 123e
000001c0: d48f 003d 7a63 5e3f 8e71 d73c af3b 8c3d
000001d0: 4440 793e 6d0f 323f 92a0 f03e 70be 6f3d
0.027987834 0.24595283 0.6147338 0.30175498 0.35601324 -0.087366745 0.41262752 0.06034733
0.33684894 0.123632915 0.37582454 0.28399363 -0.00600535 0.12035187 0.2766632 0.12754498
0.40498358 0.07675393 0.1239456 0.09205349 -0.17713147 0.06479784 -0.21358195 0.23452197
0.042869266 0.06392631 0.2240083 0.096844316 0.36563805 0.024303846 0.23784424 -0.013897644
-0.1461207 -0.030922983 -0.024479667 -0.2895377 -0.086472265 -0.078176595 -0.13328932 0.24970768
0.21441184 0.026994498 0.40056777 -0.115963034 0.058133442 -0.25031397 -0.20726673 0.15485837
-0.115913615 -0.020778473 0.14893903 -0.26546538 0.2839856 0.20838004 -0.04256334 -0.033885296
0.06212127 -0.22895683 -0.4210508 -0.010927657 -0.038740642 0.0402702 -0.10412391 0.03388744
-0.017840685 -0.09748591 -0.02366252 -0.09465019 0.14248544 0.173921 -0.056401722 0.10163174
-0.21015972 0.05233053 -0.0022106597 0.19349806 -0.056413572 0.18833019 0.0025798108 0.12658632
0.059543665 -0.018576771 0.041852497 0.17340909 -0.042104863 -0.17437293 0.10825419 -0.18443462
0.002093589 0.13195236 0.42176738 0.61064243 0.9587372 0.14040549 0.96036 0.31578174
0.57561743 0.07292436 0.48902237 0.2368582 0.41460988 0.1940351 0.052249767 0.1041203
0.2861437 0.22519082 0.3636679 0.38826987 0.34938887 0.30149236 -0.22451495 0.14264338
0.031387165 0.8687054 0.026299264 0.06847321 0.24340922 0.6955479 0.46997505 0.058531225

linear.weight f4 [8, 30]
00000000: 4c39 d73d d6b7 5b3f 095d d23e bc1d 293f
00000010: 3f12 4fbf 7d05 dabe 20d6 893e 963d b23e
00000020: bd53 34bf 5f4d 5e3f 984f 3cbf c3dc c93e
00000030: 5237 7d3f aadf 263f 8517 9fbe f1a3 713e
00000040: c4ed 67bf f322 313f cd31 8e3e 3ae3 3cbf
00000050: e898 723f 3c60 223e caeb b73e 7f5c 873f
00000060: 5fd4 e23e 54ff 1d3f f2f0 6f3e 3910 9c3f
00000070: c2a9 893e 1b11 373e ab70 14bf 0d48 103f
00000080: e6a4 8b3f e614 2bbf d1b4 613f 3513 8e3e
00000090: de15 60bf 0099 063d 7c21 20bf bc2c 623f
000000a0: f0cd 3c3e 4031 6dbd 5d93 643e bdbc 26bf
000000b0: 2c35 94be a07f 143f a79c 34bf 807f 563f
000000c0: 8605 903c d6e6 0ebf 8023 3f3f 45f2 9e3e
000000d0: 0629 afbb fdf9 34bf 7d74 f83e cefd 18bf
000000e0: 94c1 ed3d 04f7 efbe 7c83 30bf d4eb ff3d
000000f0: da79 86be 93b5 51bf 8b6f 913f 0ea3 32bf
00000100: a928 3d3f 2483 a83f e727 8ebe 3ab4 3ebe
00000110: 17a8 2abf 63e9 7a3f 9a06 863f 385f d93e
00000120: 60fb 4d3f 72f6 1e3f dfd9 44bf cb93 8bbf
00000130: 7e8f 62be 91f2 173f dc4e ec3d e606 803e
00000140: 9240 43bf 2b67 31bf e5c4 5d3e daca 633f
00000150: 9cce c23e ee17 1bbf 23bc 93be f4b0 0ebf
00000160: 1305 f23e 9cfe e9bf b4f8 8e3f 4e19 62bf
00000170: bbda 41bf 9daa 293f 3c2d 4c3f d3e3 7abe
00000180: 750f 473f 95bf 0cbe a224 0ebf eaf4 f1be
00000190: fb15 853f 25d0 a9be c514 2bbf e5f2 40bf
000001a0: b032 b0bc da64 dd3e ad94 4fbe 201c 5abe
000001b0: 6e51 b4be 50bd 603f 4038 543e 3f1d 473f
000001c0: fec5 883e 5126 d23e d95c 04be ea14 3b3e
000001d0: c128 9ebf aee9 233f 0612 30bf 7f9f a73d
000001e0: 82e8 edbe 00d8 7d3e f048 6abf fbba 243f
000001f0: cda1 543f a128 73bd 2a24 523f ea6a b6bd
00000200: 3a6c 7d3f b9c9 2cbf 90e4 a0bd ef74 01bf
00000210: d3e4 293f c4ac 713e a887 f73e 5dd1 0c3f
00000220: b1a9 08bf 49eb 0b3f 4320 27bf 7d1e 3bbf
00000230: 6a17 48bf 2f7d 2cbf 92fe 2abe 094b 603f
00000240: 78f1 ef3e 99fd c23e 5e01 07bf 9285 26bf
00000250: 93ea 453f 4d0d 003e d0da d5be 0067 11bf
00000260: 9bb8 893f 77fc 293f 29d7 4ebf e3e8 12bf
00000270: 2027 f3be aec9 353f d89f b63f fb99 813e
00000280: d77b d43e 3965 b33e dc82 1dbf d084 25bf
00000290: 82fd 8d3f 5de8 afbf 9e17 453f e443 83bf
000002a0: cc56 873f 6de2 7b3f 81c1 c9be 762c 8bbe
000002b0: 5340 9cbf 0c87 48bf 583b 7c3e 1b49 7a3e
000002c0: 297c c2be d7d7 6a3f 447b a63e 8974 59bf
000002d0: 2044 ff3d b5e0 3dbf 6743 3ebf 8942 24bf
000002e0: 8e3b 5fbf caa6 973f e003 f6be 600a 0dbe
000002f0: f636 49be 2bea 50bf 6d1e 0cbf 4012 0c3e
00000300: 1047 1ebf 9cb3 e53e 094d 34bf 4553 9dbf
00000310: d350 4b3f 0093 7ebf 4db5 9d3f 48c6 653f
00000320: 8a90 e1be 43ca 23be 3a7a 6c3e 3672 17bf
00000330: 7d28 65bf 1b8c 6fbe 3a01 0d3f f9ae 993d
00000340: 0c0b 513f f0ce c73e a1cc fe3e ba81 3e3f
00000350: d1e2 45bf f48e f5be a99c 5fbf f2b1 28bf
00000360: d213 2d3f 509e ee3d a3d0 b23f ac30 45bf
00000370: c1ae 20bf 9c00 5cbe 6acb 03bf 1b6c 813e
00000380: c4ed 903f 07ac 873e cd04 323f 8967 a5bf
00000390: 61de 0bbf 6906 31bf 77a1 a73d 6b3d 153f
000003a0: 5002 253e a54e 2abf 4bb4 66bf bf43 0e3f
000003b0: 8fa7 053f b798 2ebf b812 15bf 918f 903e
0.105089754 0.85827386 0.41086605 0.66060996 -0.80887216 -0.42582312 0.26921177 0.3481261
-0.70440274 0.8683681 -0.7355895 0.3942624 0.9891254 0.65185034 -0.3107263 0.23597695
-0.90597177 0.69193953 0.2777237 -0.7378422 0.94764566 0.15857023 0.3592208 1.0575103
0.4430265 0.61717725 0.23431757 1.2192451 0.26887327 0.17877619 -0.5798442 0.5635994
1.0909698 -0.66828763 0.8816653 0.2774903 -0.87533367 0.032860756 -0.62551093 0.8834951
0.18437934 -0.057908297 0.2232184 -0.6513174 -0.28946817 0.5800724 -0.7055153 0.837883
0.017580759 -0.5582098 0.74663544 0.31044212 -0.0053454665 -0.7069395 0.48526374 -0.59762275
0.11609188 -0.46868145 -0.6895063 0.124961525 -0.2626484 -0.81917685 1.1362165 -0.6978005
0.7389017 1.3165021 -0.27764818 -0.18623438 -0.66662735 0.9801237 1.0470765 0.4245546
0.8046169 0.62094796 -0.76894945 -1.0904478 -0.2212505 0.593545 0.11538479 0.25005263
-0.762704 -0.69298047 0.2165714 0.889814 0.38048255 -0.6058339 -0.28854474 -0.5573876
0.47269496 -1.8280826 1.1169648 -0.8831986 -0.7572438 0.6627596 0.7975652 -0.2450097
0.7775796 -0.13744958 -0.5552465 -0.47257167 1.0397333 -0.33166614 -0.66828567 -0.7537063
-0.021508545 0.43241006 -0.20271559 -0.21299791 -0.35218376 0.8778887 0.20724583 0.77779
0.26713556 0.41044858 -0.12926044 0.18269697 -1.2356187 0.6402844 -0.687775 0.08184718
-0.46466452 0.24789429 -0.91517544 0.6434781 0.8305939 -0.05936492 0.8208643 -0.08907111
0.98993266 -0.67495304 -0.07856095 -0.5056905 0.66364783 0.23601061 0.48345685 0.55006963
-0.5338393 0.5465589 -0.652836 -0.73093396 -0.7816073 -0.67378515 -0.16698673 0.87614495
0.46863914 0.38084105 -0.5273646 -0.6504756 0.77311057 0.12505074 -0.41768503 -0.5679779
1.0759462 0.66400856 -0.8079706 -0.57386607 -0.47490788 0.71010864 1.426753 0.2531279
0.41500732 0.35038164 -0.615278 -0.6465578 1.109299 -1.3742787 0.7698916 -1.0255094
1.0573363 0.98392373 -0.39405444 -0.27182359 -1.220713 -0.78331065 0.24632013 0.2444195
-0.37985352 0.91735595 0.3251592 -0.84943444 0.12464166 -0.74171 -0.743216 -0.64164025
-0.8720025 1.1847775 -0.4804983 -0.13773489 -0.19649872 -0.8160731 -0.54733926 0.13678837
-0.6182718 0.44863594 -0.70430046 -1.2291037 0.794202 -0.99443054 1.2320954 0.8975568
-0.44055587 -0.15995125 0.230935 -0.5915865 -0.89514905 -0.2339329 0.55079997 0.075040765
0.8165748 0.39025068 0.49765494 0.744167 -0.7729922 -0.47960627 -0.8734842 -0.65896523
0.6760837 0.116512895 1.3969921 -0.7702739 -0.62766653 -0.21484607 -0.5148226 0.2527779
1.132256 0.26498434 0.69538575 -1.2922221 -0.546362 -0.69150406 0.08185094 0.5829684
0.16114163 -0.6652625 -0.90118855 0.5557212 0.522088 -0.68201774 -0.5823169 0.28234532

linear.bias f4 [8]
00000000: 7c6d 563e a90b 95bd 71bd 16be 9511 ea3d
00000010: 6120 983e 27c3 cb3e 8380 42be 24a6 08bf
0.20940202 -0.072776146 -0.14720704 0.11429135 0.29712203 0.39797327 -0.18994336 -0.5337851
